trained_models/dqn_model_500.pth (torch, 278727 bytes, 6 tensors)

fc1.weight f4 [256, 8]
00000000: ef08 893f 54f3 26be 5dd2 5fbe 5209 c63e
00000010: 2f9b 0fbf 3ec6 31bd 1896 b33d 5735 7e3c
00000020: 8dec b73e e754 31c0 e5e6 4b3e ae12 17be
00000030: 4b90 f4bd da16 30bf aa17 7fbe 7e23 55bf
00000040: 80e3 a03d 81c7 263f 2a35 f2bf f900 2bbf
00000050: 47c2 953d b530 b93c 8753 c5bd b3cb 52be
00000060: 2278 3bbe 8f97 48bf 6af3 1ebe 0ab4 473d
00000070: 8e29 b13f 544e ca3c 44ad 36bd 4be3 fb3d
00000080: 35db 40bd 66d9 1ac0 3c05 723f 9fe8 c63e
00000090: b9b6 71be 6a78 e03e 7df3 28be 7f24 b73b
000000a0: db23 fd3e 6344 8ec0 e47b 19be 61ad f9be
000000b0: a2b4 1abe 9a66 e93d f73f 9c3e c0d0 d8be
000000c0: 6dd5 7dbe 8b2e 02bf e46b d9bf e3ef 2dbf
000000d0: 60da db3e 4f9b 8cbe 8444 d3bd a5a4 1c3f
000000e0: 636e cb3e 839d 64c0 1c1b 14c0 d6eb c73f
000000f0: d748 c1be 9c19 a5bd bc45 ac3e 6c26 563e
00000100: a845 523e 9389 943e b06a f7bd 5bb9 f8be
00000110: af58 353f de28 0cbe 21f2 423f dd28 edbe
00000120: f255 153f 223d 13bf 9af3 20bf 075b 1b3d
00000130: d9c0 d8bc 95d5 5ebb b26a 1c3e 460b a0be
00000140: e254 ae3e 4cdd 95bf 4f80 d1bd 2797 1a40
00000150: 686c 7c3d ded1 12bf 67b1 643d 21e2 5f3e
00000160: 387c afbd 5209 aebe 2592 c8bb 6d8d c0be
00000170: d119 e9be 53af efbc 74b5 19bb be44 f23d
00000180: fbae 6f3f 3924 b1c0 44ce 14bf 8482 debf
00000190: 984f 933e 2df8 94bc 5cbc 223e 8822 883d
000001a0: befb 54bd 2a3f 5bbf 0b9b 8fbe e5ea 14bf
000001b0: ea0c 86bc 78dd 223e e6ff 06bd b191 3bbf
000001c0: 5fdb 0bbf 7e00 283e c4c5 9dbe 86aa 4ebf
000001d0: 5885 313f c070 8ebd 4afd 623e 0e09 203e
000001e0: cb4e 0a3d 1597 67bf 5d71 48bf 0023 84bf
000001f0: f88f 28be 424b e83e cd30 da3e d920 8abe
00000200: e6c5 733e f85d 09bf 6a22 3fbe a8b1 da3d
00000210: 3d55 17bc 8750 42bb 770a 17be e060 7cbd
00000220: dcfb c93e 779a 203f 812f b6bf a3bf a13e
00000230: 5a6a bf3e 416d 2ebe 2b1d 433f c5dd 5b3e
00000240: e5b5 feb9 d819 21bf 665a 20bf 3e55 1640
00000250: 4e8a 92be 1125 1e3f 73de bb3d 5ac6 f8be
00000260: 0a7b cd3e e32b 9abd 0d1e 05bd 4d52 3a3e
00000270: 98c5 0c3e b97d 0fbe 06ab 2a3d 65b2 e0be
00000280: 626c e83b b2c1 fdbc 934a 653c 8501 9cba
00000290: 7223 0d40 bd51 fc3b d0b5 c73d 68c9 813d
000002a0: 8690 27bd a4b9 1d40 f209 af3f 3a01 cbbe
000002b0: 3a8f ed3d bf0e 98be ddae 0d3e 7ae8 e1be
000002c0: 008e 443e f58f c8bf cba8 7cbe f4ba 70be
000002d0: 0fc9 25bf 303a c53d a371 e3be c388 3c3e
000002e0: 4dea 0440 a7a6 5b3f c1e3 9d3e c87e d93e
000002f0: fb03 0abf 05f5 9c3e cc69 d93e 199e bcbe
00000300: d12b d33d d240 14bf cac9 7c3d c919 c1bc
00000310: c5a9 413d 9d51 20bd 16fa 95bd cc46 a9be
00000320: 112f 9dbf 04ee c83e 03b3 903d 06b4 573e
00000330: 3ca5 b63f 5b96 d3bb 5211 67bb 3385 c43d
00000340: c3e6 66be 544f 60c0 e1df 933f 9260 2cbd
00000350: b4d4 a63e 04b4 9ebd 885e e0be 373d d63d
00000360: 8c2c e63d 1f9f adbf 946e c7be f624 8c3e
00000370: 749f 39be d01d 333c e891 d4bd 314b f6bd
00000380: 5b23 a43e e6e7 a63f 2a3a e0be 75ae 3ebf
00000390: 4f81 cbbc dc98 d93e 50ca babd 7c9d 303f
000003a0: 1c23 01bf 37a7 453d c413 2c40 8819 b53e
000003b0: 7c84 e33f eed0 b43e 7fa7 103e d6ef 213d
000003c0: ff6e 71bf 929c f7bf 5aa2 a1be 37c5 703f
000003d0: c4d7 8e3e b84f 34be a755 33be 069c 1b3e
000003e0: 6f10 3f3f 0eda 5a40 c21d 54bf 0c86 23be
000003f0: 0d03 6f3e f1ec 493d 1efe e83e 1bc8 d0bd
1.0705851 -0.1630376 -0.21857591 0.38678986 -0.56096166 -0.04340195 0.087688625 0.015515647
0.3592266 -2.770807 0.19912298 -0.1475322 -0.11941584 -0.6878487 -0.24911371 -0.8325728
0.07855892 0.6514817 -1.8922474 -0.6679836 0.07312446 0.022606233 -0.09635072 -0.20585518
-0.18307546 -0.7835626 -0.15522543 0.048755683 1.3840806 0.024695553 -0.044598833 0.12299212
-0.047084052 -2.419519 0.9453924 0.3884935 -0.2360486 0.4384187 -0.16499133 0.0055890675
0.49441418 -4.445848 -0.14988667 -0.4876509 -0.15107968 0.11396523 0.3051755 -0.42346764
-0.24788447 -0.5085227 -1.6986051 -0.67944163 0.42940044 -0.2746224 -0.10315803 0.6118873
0.39732656 -3.5721138 -2.3141546 1.5618846 -0.37750885 -0.08061525 0.33646953 0.20913094
0.20534384 0.2901121 -0.12080896 -0.48578915 0.70838445 -0.13687465 0.7615071 -0.4632024
0.5833427 -0.57515156 -0.62871706 0.037928607 -0.026459144 -0.0034001817 0.15275076 -0.312586
0.34049135 -1.170816 -0.10229551 2.4154756 0.06162682 -0.5735148 0.055833247 0.21863605
-0.08568615 -0.33991486 -0.0061209374 -0.376079 -0.4552751 -0.029258406 -0.0023454102 0.11829518
0.93626374 -5.5356717 -0.58127236 -1.738358 0.28771663 -0.018184746 0.15892166 0.06647211
-0.051997893 -0.85643256 -0.28047976 -0.5817092 -0.01636358 0.15904796 -0.032958888 -0.7326918
-0.5463161 0.16406438 -0.30814946 -0.8072895 0.6934409 -0.06955099 0.22166935 0.15628454
0.03376655 -0.9046491 -0.7829798 -1.0323181 -0.1646117 0.45369917 0.42615357 -0.26978186
0.23805961 -0.5365901 -0.18665472 0.106784165 -0.009236631 -0.0029650049 -0.14750086 -0.061615825
0.39449966 0.62735695 -1.4233247 0.3159152 0.37385827 -0.17033865 0.7621638 0.21471317
-0.00048582177 -0.6293006 -0.6263794 2.3489528 -0.28621143 0.6177531 0.09173288 -0.4858883
0.40132934 -0.07527902 -0.03249936 0.18195458 0.13747251 -0.14012803 0.041667007 -0.43886104
0.0070929984 -0.03097615 0.013994831 -0.0011902308 2.2052884 0.0077001736 0.09751475 0.06337243
-0.040909313 2.4644556 1.367491 -0.39649373 0.11599584 -0.2969875 0.13836236 -0.44122678
0.19194794 -1.5668932 -0.24673764 -0.23508817 -0.64759916 0.09630239 -0.44422635 0.18411545
2.0768006 0.85801166 0.30837825 0.4247954 -0.53912324 0.30655685 0.4246353 -0.3683937
0.10311092 -0.5791141 0.06171588 -0.023571866 0.047281045 -0.039140332 -0.07323091 -0.33061826
-1.2279989 0.39244092 0.07065394 0.21064767 1.4269176 -0.0064571328 -0.0035258126 0.09595718
-0.22548966 -3.5048418 1.1552697 -0.042084284 0.32584155 -0.07749179 -0.43822122 0.104608946
0.112389654 -1.3564185 -0.38951552 0.2737195 -0.18127233 0.010932401 -0.10379392 -0.120260604
0.32058224 1.303952 -0.43794376 -0.7448495 -0.024841933 0.42499435 -0.09120619 0.689903
-0.504442 0.04825517 2.6887064 0.3537104 1.7774806 0.3531565 0.14126395 0.039535366
-0.9430999 -1.9344656 -0.31569177 0.94050926 0.2789899 -0.17608535 -0.17513143 0.15196237
0.7463445 3.419559 -0.82857907 -0.15969104 0.23341008 0.04929823 0.45506376 -0.10194417

fc1.bias f4 [256]
00000000: 4769 0d3f 82b1 11bf b52c a5be 9c0f 153f
00000010: 560d 343f 75f9 d13d 6c4a f4be fc9a cbbd
00000020: 6ade a2be c71c 083f 3079 fa3e 4951 47be
00000030: 18fc afbe dc02 d2bc fdfa 41bf 754b a6be
00000040: eb20 b03e a476 abbe 689a 653f fb69 9fbc
00000050: d488 233c ed1f f0be b13f a1bf 0ce5 113f
00000060: c673 653e 6d23 1fbe da20 823e 2d9b 623e
00000070: feb4 57bf a2c0 c23d ff23 303f c32e 65be
00000080: eb43 84be c53f bd3d 600a 02bf 6e23 3dbf
00000090: e571 b93d 266f 8dbd 36b0 f6be 41bf 21bf
000000a0: 7428 e3bc 1dd7 b53d fdd2 28bf 297d 413d
000000b0: 8947 18bd 7a3d ad3e 1da9 2ebf 9a73 8d3e
000000c0: f243 c4be 2191 803e 3b36 f6be 749a 123d
000000d0: 2dda ce3e 8f2b f53e 4eef c93e 9f50 16be
000000e0: a205 913e fc48 ad3c 3c02 ba3d 4c51 ddbe
000000f0: c67a 443e 8382 bebe 1e6d acbe 0ece d0be
00000100: 5f91 4e3e d4c8 4b3e 9b9c 27bd fc47 50be
00000110: c53c 9cbf 7659 623f 36b3 103e b144 b43e
00000120: 54d4 72bd 9843 5d3e c451 33bd 74e0 9f3e
00000130: 9073 683e aea7 75be 5568 8f3e e857 fabd
00000140: e930 11bc 24f1 79be 5037 06be aeea f73e
00000150: 3181 3e3f bc60 a9bd b3df d23d 1110 f43e
00000160: 0547 fa3e 657e ad3e 483c e3be 30f0 b93d
00000170: c765 66be 4629 2b3f 6311 36bf ea6d aabd
00000180: f40d b33e 106b 56be 9598 27bf e260 ec3e
00000190: 47bb ed3d 384a 92bf b54d fdbd 3052 7c3e
000001a0: 1c3f 00be ac27 f43b 50c4 cebe a5f9 0cbf
000001b0: 7593 c03e 32a8 213f 5457 e6bd 0294 05bd
000001c0: 6d6d 2a3e 8d23 cfbd cde9 98be 9d73 9f3e
000001d0: 5895 76be 3e0d 603e ed23 27bf 5039 2fbe
000001e0: 4a99 89bd 3f61 dc3e 8321 513e 1b7b 07bf
000001f0: 5bb1 1cbe 6c14 153f 35ee 1ebf 19d2 a9be
00000200: c33d 0abf f1dd a13e 1cc5 a3be 5889 6d3e
00000210: 9143 cabe e129 31bf 3f8d d8bd 1214 77bc
00000220: 00b4 683d b45f 8bbe 856d 05be 349e 8e3e
00000230: df67 d6bd c793 023a f612 b6be 0644 513e
00000240: a104 2e3f 2dc7 223f 9ca1 273e 0866 4dbe
00000250: 9d4a 16bf c7f2 a63c 294d b2be aa01 b93e
00000260: cc1e 4cbf 2464 d8be d680 02bf 9bfc 66be
00000270: abe3 3e3e ea59 11be d302 c33e 0a1d a2be
00000280: dd12 f53e 2da9 09bf 1e63 113f 17ca ae3e
00000290: 6d47 c1be 3c51 e5bd 3b3b c3bc df94 77bf
000002a0: 2056 13be ca3b 82bf 4bd2 233f 5bd5 f4bc
000002b0: b1a7 b9be cc08 73be 679f cebe 1453 21bf
000002c0: ede6 b8be 8b4a a4be 4dd0 ec3d 2c59 4ebe
000002d0: 2803 22bf cba1 073e 9014 c53c 4075 05bf
000002e0: b84e fb3e 4bde 943e 1b28 213e 02d1 3b3e
000002f0: 6956 35bf 9ac0 3bbf 97d4 ec3d 7276 f23e
00000300: 3d5e 3a3e 3306 993e 8d0c 34bf c4a4 0b3f
00000310: 2db1 9fbe e96c 26be 07f4 62be 2f44 0f3f
00000320: 89cd 223f 34d6 b5be 65b7 2cbd aa95 053c
00000330: 2f1c 5f3d d7ef 23be 7b88 193f f294 183e
00000340: a6fc c6bc 266b ef3b 57f4 62be f604 563d
00000350: a620 0cbf dbad 8fbe 390d 2a3f 5136 3b3f
00000360: bf81 80be dc88 563e df9f cc3d cf88 233f
00000370: 8783 7d3e a64e babe 45e2 d93d 5f3c 873f
00000380: 8fe0 3bbe fd2b 53bf 08b2 013c 6449 a9bd
00000390: c5bb a1be 4229 4ebe b828 743e ae00 afbd
000003a0: 28ac 09be e38c 90be 3075 eabd 550e 5abd
000003b0: 1ed4 6abf 2ce5 0cbf 1192 2abf 8c6d 823e
000003c0: fae1 1bbe 3198 7cbf 94e3 4dbe 5b38 053f
000003d0: 4096 283f f4e9 e13e 5991 fb3d 688b d13d
000003e0: e16f 2ebe d0a0 393e d108 96bf 306b e43e
000003f0: 8340 e73c cef4 a7be 3ba7 6fbc 554e 15bf
0.55238765 -0.5691148 -0.3226067 0.58226943 0.7033285 0.10252658 -0.4771303 -0.0994167
-0.31810313 0.5316891 0.48920584 -0.19464602 -0.3437202 -0.02563613 -0.757736 -0.32479444
0.34400114 -0.33488953 0.8968873 -0.019459715 0.009981353 -0.46899357 -1.2597562 0.5699012
0.22407445 -0.15540858 0.2541569 0.22129507 -0.8426055 0.09509398 0.68804926 -0.2238112
-0.25833067 0.09240679 -0.5079708 -0.73882186 0.09054927 -0.069059655 -0.48181313 -0.63182455
-0.02772925 0.0887892 -0.6594694 0.047238503 -0.037177596 0.33835965 -0.68226796 0.2762726
-0.38333088 0.25110725 -0.4808825 0.03579183 0.4040083 0.47884795 0.39440387 -0.14679192
0.2832461 0.021152966 0.090824574 -0.43226087 0.1918746 -0.37208948 -0.33677 -0.40782207
0.20172642 0.19900829 -0.040920835 -0.2033996 -1.2206045 0.88417757 0.14130864 0.35208657
-0.059284523 0.21607816 -0.04377915 0.31225932 0.22700334 -0.23989746 0.28009287 -0.12223798
-0.008861759 -0.24408394 -0.13107038 0.48421234 0.7441588 -0.08270404 0.102965735 0.47668508
0.4888231 0.33885494 -0.44381928 0.09079015 -0.22499762 0.66859853 -0.7112028 -0.08321746
0.34971583 -0.20939279 -0.65467197 0.46167666 0.11607986 -1.14289 -0.12368337 0.24640727
-0.12524074 0.0074510183 -0.4038415 -0.5506843 0.376125 0.6314727 -0.11247125 -0.032611854
0.16643305 -0.10114203 -0.29865876 0.31142893 -0.24080408 0.21880051 -0.65289193 -0.17111707
-0.06718691 0.43042943 0.2042294 -0.5292222 -0.1530203 0.58234286 -0.62082225 -0.33168104
-0.5400049 0.3161464 -0.3198632 0.23196924 -0.39504674 -0.6920453 -0.105738156 -0.015080469
0.056812286 -0.27221453 -0.1303006 0.27855074 -0.104690306 0.0004981127 -0.3556134 0.20436105
0.67975813 0.6358517 0.16370243 -0.20058453 -0.587076 0.020379437 -0.34824494 0.36134082
-0.7973449 -0.422639 -0.5097784 -0.22557299 0.18641536 -0.14194456 0.38088092 -0.3166278
0.47865954 -0.53773767 0.56791866 0.34138557 -0.37749806 -0.11197135 -0.023831954 -0.96711534
-0.14388323 -1.0174496 0.63992757 -0.029886892 -0.3626075 -0.23733824 -0.4035599 -0.6301739
-0.36113682 -0.32088122 0.11563168 -0.20151204 -0.63286066 0.13245313 0.024057657 -0.52132034
0.49083495 0.29075846 0.15737955 0.18341449 -0.70834976 -0.7334076 0.11563986 0.47355992
0.18200012 0.29887542 -0.7033165 0.5454829 -0.31189862 -0.16252483 -0.22163402 0.55963415
0.6359487 -0.35514987 -0.042167086 0.0081533585 0.054470237 -0.1600946 0.5997388 0.14900568
-0.024290394 0.0073064743 -0.22163521 0.052250825 -0.5473732 -0.2806233 0.66426426 0.73129755
-0.25098988 0.20950645 0.099914305 0.6388063 0.24757205 -0.3638813 0.106388606 1.0565299
-0.18347381 -0.82488996 0.007915981 -0.08265951 -0.3158857 -0.20132926 0.23843658 -0.085450515
-0.13444579 -0.28232488 -0.11448133 -0.053236324 -0.91729915 -0.5503719 -0.6662913 0.25474203
-0.15222922 -0.98669726 -0.20106345 0.52039117 0.65854263 0.44123805 0.12283582 0.10231668
-0.17034866 0.18127751 -1.172144 0.44613028 0.028229004 -0.3280396 -0.014627273 -0.5832265

fc2.weight f4 [256, 256]
00000000: 0c16 c5bc 09f6 a23d 6823 023d 047f c1bd
00000010: 771d 2bbd 3cab 4a3d 02fe b2bd 32ed 433d
00000020: 3a50 4bbd 2d66 1fbd 44fa adbd 0d4e 2dbc
00000030: 1c53 26bd 59c1 363d 5402 5fbd a1f4 12bd
00000040: f9cc 75bd 0d5d 92bd eda0 61bb b404 fbba
00000050: 62ec fb3c c196 76bb a390 81bd 9ae9 003d
00000060: 9b9d a3bd 6001 453c 19ac 633c c267 d8bd
00000070: 4fc3 0f3d d732 93ba ce5d b1bb acae 6abd
00000080: e7be 2a3b 5e11 9fbd 3b23 9ebd 4f69 a6bd
00000090: 0363 bebd b760 c0bd 900f 4c3d 4df3 13bd
000000a0: 7299 77bc 5082 7dbd 209f 87bd 3e45 c03b
000000b0: 4989 a0bc 8dcc 84bd 8c7f 09bd 5c23 03bd
000000c0: 2d8e 9dbd 3ce0 43bd b325 313d afa3 a3bd
000000d0: 56b0 883c 2e85 3ebd 21e6 50bd 183e b2bb
000000e0: 54e0 56bd 7900 6fbc 4167 2e3d bb3a 5bbc
000000f0: 44d0 d9bc d5eb 6cbc ba22 33bd 625e ad3c
00000100: d4cb a3bd cad5 20bd a6e9 de3c f702 02bd
00000110: 0152 e2bc 6c90 33bd 580f fbbd 575c 67bd
00000120: e766 acbc e24d a3bd 1986 89bd 92b6 253d
00000130: 3a8c 6cbc 6731 43bc 84a5 bcbc 2a08 3dbc
00000140: 0adc c53d 5024 c7bd 3bf4 47bd 275a 5bbd
00000150: 6e69 05bd 5e11 4abd a2db c93c ebbe 9fbd
00000160: 1f29 98bd ab8e b2bd b57d 82bd 57e1 84bd
00000170: 63c9 163d 9655 b5bd f390 1a3d 2758 9abc
00000180: d22b 80bd 76b5 afbd 7a36 5ebc 722c a93c
00000190: 5397 abbd d287 7cbd 28a9 34bd bc1c 353d
000001a0: ed91 303d 3744 b3bd 6fea 87bc e8b6 11bc
000001b0: 0104 f13c 2b2a 10bd ba19 da3c 6a2a 1ebd
000001c0: c784 963b 7e84 dbbd 549d 053d 03f8 eb3c
000001d0: 5b66 90bc 2fc1 86bd 5866 5d3b 21e3 d8bc
000001e0: 316a 71bd 9b6c acbd f8d0 af3b 7180 7dbd
000001f0: e8ba fbbb 356c d9bc 3ee8 acbc 410e f0bc
00000200: bdb3 d5bd f17b cabd 7275 a8bd f136 29bd
00000210: 62a9 d53c 3f7f 233d 486f 093b edfb babc
00000220: 988f 493d 350f 81bd d49b d83b d6da afbd
00000230: dd7f 76bc c6c9 e1bd 8be8 9eba 187a 66bd
00000240: a8de 9c3c 01bb 3abd 4752 a5bc 64b5 28bd
00000250: fd21 04bc 8a6b 9d3c a980 83bd e8f8 acba
00000260: a9ce ca3c 0bae d4bd e4f3 103c cb8b ff3c
00000270: d8c4 1cbd 2007 103d 394f 60bd a9ed 393d
00000280: fbc5 53bd 1b75 dcbd b1a6 68bd 504d 293d
00000290: e8d2 f83c 46da 6cbc 1d68 89bd 4a35 2f3d
000002a0: 3f6f a6bc 2531 4abd 1fae 6abc 55f6 993d
000002b0: d8e6 67bd a9e0 e2bd b6f6 d1bc 056c 99bb
000002c0: 055d 32bc 462e 29bd 6d5c 5ebd a0ed a4bd
000002d0: 4b32 d7bc aecc 84bc 985a 36bc ec75 41bd
000002e0: 69d4 d7bd a3a5 85ba 2ed3 b7bd bb8c 28bd
000002f0: 148c 95bd 9266 24bd 9c6c d03c 4d03 7fbd
00000300: 5f85 333c 458c df3c dd8c a4bd 2c19 60bd
00000310: 9459 a8bb 2b63 2c3c 5122 82bd 19bc 6bb9
00000320: 2799 21bd 7062 b3bd 0785 3d3d 76d6 80bc
00000330: a540 f53c c1c4 debc 6d92 9e3c e445 2e3c
00000340: 8261 9a3d 6181 9e3b 5140 f03c 3b7c 2bbd
00000350: db3a b1bb 4b3d 91bd 4687 d8bd b2b2 9dbd
00000360: 9443 463d 42f1 fa3c 9243 3abd 4995 8a3d
00000370: 3692 39bd 0014 4239 74c4 a9bd d2b0 8fbc
00000380: b871 c0bd d4d0 95bd 8783 47bd 7153 bebd
00000390: 4cb5 70bd ef58 db3c 78bf 38bd 0fe5 66bc
000003a0: cc81 82bd c116 0dbb 6345 04bd 0427 97bd
000003b0: 3b8b 363d 30b0 14bd b2d3 273c 96f2 473c
000003c0: 318b 95bd 640c 9ebc 8be8 93bd 6d3b 78bd
000003d0: 59c2 91bd 4771 283c c827 46bc 7fe7 0fbe
000003e0: a324 d33b d1bf 92bd b70c 8f3d 649d 1fbd
000003f0: ec78 86bd 4435 e03c 3403 3a39 60ff a9bc
-0.024058364 0.07957084 0.031772047 -0.094480544 -0.041776147 0.049479708 -0.087398544 0.04783363
-0.049637057 -0.0389158 -0.08495 -0.010577691 -0.040606603 0.044617984 -0.05444558 -0.035877828
-0.06000993 -0.07146654 -0.0034428195 -0.0019151182 0.030752365 -0.0037626477 -0.063264154 0.03147278
-0.07989045 0.012024254 0.013896012 -0.10566665 0.03509837 -0.0011230361 -0.0054127937 -0.057295486
0.0026053728 -0.077669844 -0.077215634 -0.08125555 -0.09296229 -0.09393447 0.04981953 -0.0361207
-0.015112268 -0.061891854 -0.066221476 0.0058676293 -0.019596713 -0.064843275 -0.033568904 -0.032016143
-0.076931335 -0.04782127 0.043248843 -0.079902045 0.016685646 -0.04651373 -0.051000718 -0.005439531
-0.05246003 -0.014587515 0.04257894 -0.013380702 -0.026588567 -0.014460524 -0.04373429 0.02116317
-0.079978615 -0.039266385 0.027211022 -0.03174111 -0.027626993 -0.043838903 -0.12258786 -0.056484547
-0.021045161 -0.07973839 -0.0671503 0.040457316 -0.0144377295 -0.011913634 -0.023028143 -0.011537591
0.0966111 -0.09723723 -0.0488169 -0.053552773 -0.03257125 -0.04933297 0.024640862 -0.078000866
-0.07429718 -0.08718618 -0.06371633 -0.06488293 0.03681315 -0.08854215 0.03773589 -0.018840862
-0.06258358 -0.08579533 -0.013562793 0.020651076 -0.08378472 -0.061652966 -0.044106632 0.044216856
0.043107916 -0.08753245 -0.016591279 -0.008893706 0.029420855 -0.035196465 0.026623596 -0.038614668
0.004593465 -0.1071863 0.032620743 0.028804785 -0.017626932 -0.065798156 0.0033782925 -0.026475491
-0.058939163 -0.08419152 0.005365487 -0.06189007 -0.007682193 -0.026540855 -0.021106835 -0.029303672
-0.10434673 -0.09886921 -0.08225526 -0.04131216 0.026081745 0.039916273 0.002097087 -0.022825206
0.049209207 -0.06301729 0.006610373 -0.085866615 -0.015045133 -0.11024813 -0.0012123747 -0.05626878
0.01914914 -0.045588497 -0.020180834 -0.041188613 -0.008064744 0.019216318 -0.06421024 -0.0013196738
0.024756746 -0.103847586 0.008847211 0.031194588 -0.038273662 0.035163045 -0.054763053 0.045392666
-0.05170248 -0.107645236 -0.056799594 0.041333497 0.030374005 -0.014456337 -0.06709311 0.04277543
-0.020316718 -0.049363274 -0.01432374 0.07517687 -0.056616634 -0.11078007 -0.025630336 -0.0046820664
-0.010886435 -0.041303895 -0.054287363 -0.08053136 -0.026269099 -0.01621088 -0.011129998 -0.0472316
-0.10538561 -0.0010196458 -0.08975826 -0.041149836 -0.073021084 -0.04013688 0.025442414 -0.062259007
0.010957091 0.027288565 -0.0803468 -0.054711506 -0.0051376317 0.01052169 -0.063542016 -0.00022481418
-0.039452698 -0.0875901 0.046269443 -0.015727263 0.029938051 -0.027193429 0.01935693 0.01063678
0.075381294 0.0048372005 0.029327543 -0.041866522 -0.0054086274 -0.07091769 -0.10572676 -0.07700099
0.04840429 0.030632619 -0.045474596 0.06766755 -0.045305453 0.00018508732 -0.082894236 -0.01754037
-0.0939669 -0.073152214 -0.04870942 -0.09293259 -0.05876665 0.026775805 -0.045104474 -0.014092698
-0.06372413 -0.0021528455 -0.032292735 -0.073804885 0.044566374 -0.036300838 0.010243343 0.012203833
-0.07301939 -0.019293018 -0.072220884 -0.060603548 -0.07117147 0.010280914 -0.0120944455 -0.14053153
0.0064435764 -0.07165492 0.06984847 -0.03896846 -0.06566033 0.027369149 0.00017739536 -0.020751655

fc2.bias f4 [256]
00000000: d58f a8bd 01e1 bcbd 145a cd3c 99f6 563e
00000010: 96c1 1b3e 4dab f8bc 275b 9cbe 231a 41bd
00000020: 03d3 a5bd a97b 76be 6a39 89be 43ce cb3c
00000030: 2174 583f e190 d6bd 2f56 0abe ff14 cabc
00000040: 19aa 403e 31d7 6fbd d164 b3bd e592 2c3f
00000050: 8ef6 68bd f823 5bbd e156 483e 40c3 b9bd
00000060: 901d 813a 83d5 2ebd d65f 73bd 6f40 823e
00000070: 31d9 8c3f effb ac3e 7191 9abe 0eb5 dc3a
00000080: fda9 a53a bd7b 883f 806f 08bf 9eb1 91bd
00000090: 8fa0 03be 1a30 e3bc dba1 0dbf 248f 2c3d
000000a0: ae29 90bb c5b1 f1bc 4739 27bd bc54 ddba
000000b0: b28d ddbd a4df b3bd 4433 b2bd e69e 22bd
000000c0: 5ee3 903b 3913 333b 1c9d d9bc 6540 273e
000000d0: 87de a7bd fbe8 5e3d d931 5a3d 86e6 dbbb
000000e0: 0f3c 2fbf ea8f 30be 6f67 a0bc d852 96bc
000000f0: 8e1f 253f bd95 9f3d 6296 883c 51ff f9bc
00000100: 026d 37bc 7aff a2bd 6af3 57bd 0519 92bb
00000110: 3821 1abb 9081 1c3f aa69 62bc 3e48 4cbd
00000120: ae4e b5bd 576a 353f eb7f 613e 274d 423e
00000130: 16df ffbd ef67 bbbc c426 c9bd a533 34bc
00000140: 8662 9dbd 1ec4 95bd 4254 71bf 4928 923c
00000150: 6ff5 e8bc f531 ac3c 846a 1cbd dc41 37be
00000160: decc 9dbd 7f84 f63c db07 0c3f b3d0 bbbe
00000170: 9069 8fbe 42d2 a6be 4626 74be 3e25 6ebd
00000180: 0c5b 1e3d 5cbf a83e 9cad 90bd 3a90 e63c
00000190: f226 2ebd 413d 19be d17f 3a3e 7d45 6e3e
000001a0: df6b e13e ae25 dabd 19be d0bc 3679 15bd
000001b0: 2774 9dbd 4d19 5a3c 7bf7 e2bd a8d5 693e
000001c0: 868e 01be fcb7 153c a5b2 27be 6b05 063f
000001d0: e6fb 93bc f427 a9bd b2bd 913e 57fd a7bd
000001e0: 98cb 59bf 00ca da3c 25e8 93bd 8823 0d3e
000001f0: af0c d33e 22bc 11bf 0878 af3d 9859 db3c
00000200: 7aea 06bc 50f5 ae3e 1ebc 053e 6a68 76be
00000210: cf92 cabe 6264 2fbd f56d 44be 3330 1abf
00000220: 428d b9be 803b 0c3f 339c be3e c0d1 52bd
00000230: 7051 e73e 2822 7abe d09b 263e 6734 513e
00000240: c755 5ebe cdea 0bbd 8f92 7dbe 371c bd3e
00000250: 73a7 51be 1002 de3e 28f6 b83e 3ffd 133f
00000260: cd95 dabe a64d 95be 1c8f 97bd b38f 22bf
00000270: 64e6 ccbd d24f 2d3e 7e58 2fbe 54c8 27bb
00000280: cce6 a13e 9e40 91bd 30fb f83d 91dc 8d3e
00000290: 5e60 c6bd bda1 833f 0b55 913d 9ed3 1b3f
000002a0: 484d 1fbc 1c4d 233f 8763 4ebd d5a1 7c3c
000002b0: c590 2fbc 1da7 d33d 6d97 dcbc 3b5c 15bc
000002c0: 4a30 4fbe 8823 5bbc 14b7 873d 2cae 85bc
000002d0: 2812 81bd a41a 79bf a34b 1bbd 6f5f 8ebc
000002e0: 22b8 2cbd 6920 743f 0902 dc3d 2840 87bd
000002f0: f518 57bd 3f7b f5bd e137 8abd 2f93 81bd
00000300: d2a2 23bd d170 8cbd f99b 973b 20b8 79be
00000310: 2080 6dbd 15c5 3abf a807 003f 99d2 b7bd
00000320: dee5 80bd 4d82 4f3c 2412 103e 6988 01bf
00000330: 9067 04be 82c9 b53d 1649 efbd dbec dc3e
00000340: bea4 b23e 591d 3b3c 50b9 013e bd89 b3bc
00000350: ffa6 2a3f e376 92be 730b a5bf 2e69 023f
00000360: 4d52 92be 9243 c13e eddf 8c3c 1581 77be
00000370: f628 82be 5ce6 ecbe d74a 143e 709a 1abf
00000380: 16fe dcbe 5b69 e7be 19b5 7cbe 6f6d 213c
00000390: d41d c9bd b4d9 90be f1a8 62bd 624b e53e
000003a0: b0f6 9bbd 719c 3abe b50e 323c 7ce1 3bbd
000003b0: 2671 c9bc 5fa5 123f 867a a03f 22d8 bcbd
000003c0: 2037 96be 6924 afbd 126c 023e 9b03 d4be
000003d0: 8801 e03c d7b4 163e 223d 7cbd 769a 51be
000003e0: d2c8 49be 48b7 2b3b 59b9 30bc 3de6 31bd
000003f0: bbb7 7ebf 9f59 b9bd 00bf 013f 796f 7dbe
-0.08230559 -0.092226036 0.025067367 0.20992507 0.15210566 -0.03035512 -0.30538294 -0.047144067
-0.08096888 -0.2407061 -0.26801616 0.024878627 0.845522 -0.10476852 -0.13509439 -0.024668215
0.18814887 -0.058554832 -0.087594636 0.67411643 -0.056875758 -0.0535011 0.19564392 -0.09070444
0.0009850729 -0.04268409 -0.05941757 0.25439784 1.1003782 0.3378596 -0.30189088 0.0016838626
0.0012639161 1.0662762 -0.53295135 -0.07113956 -0.12854217 -0.027732898 -0.55325097 0.042128697
-0.0043995 -0.029503712 -0.04082611 -0.0016886215 -0.10818042 -0.087828904 -0.087011844 -0.03970232
0.0044216355 0.002732469 -0.026564173 0.16333158 -0.081967406 0.054421406 0.053270195 -0.00671083
-0.6845102 -0.17242399 -0.019580571 -0.01835005 0.64501274 0.07792232 0.01667327 -0.030517252
-0.011195423 -0.079588845 -0.052722372 -0.004458549 -0.0023518335 0.61135197 -0.013819138 -0.049873583
-0.088528976 0.70865387 0.22021453 0.18974744 -0.12493722 -0.022876708 -0.09821847 -0.010998641
-0.076848075 -0.07312797 -0.9426919 0.017841475 -0.028437344 0.021019915 -0.03818752 -0.17896217
-0.07705091 0.030092476 0.54699486 -0.36682662 -0.28010225 -0.3258229 -0.23842725 -0.058140986
0.038661048 0.32958496 -0.07064363 0.028144944 -0.04251761 -0.14964773 0.1821282 0.23268695
0.44027612 -0.10651718 -0.02548127 -0.03649255 -0.0768817 0.013311696 -0.110823594 0.2283541
-0.12652025 0.009138104 -0.16376741 0.5235202 -0.01806445 -0.082595736 0.2846504 -0.082026176
-0.85076284 0.02670765 -0.072220124 0.13783085 0.41220614 -0.5692769 0.08567816 0.02677612
-0.0082346145 0.34171534 0.13060042 -0.24063268 -0.3956513 -0.042820342 -0.1918257 -0.60229796
-0.36240584 0.5477829 0.37228546 -0.051469564 0.4517932 -0.24427092 0.16270375 0.20430146
-0.21712409 -0.03415947 -0.24762939 0.3693559 -0.20474033 0.4336095 0.36125302 0.578083
-0.42692414 -0.29160804 -0.07400343 -0.6350052 -0.10004881 0.1692498 -0.17123601 -0.0025601583
0.31621397 -0.07092403 0.12157285 0.2770734 -0.09686349 1.0283734 0.07096299 0.6086978
-0.009723015 0.63789535 -0.050387885 0.015419443 -0.010715668 0.10334609 -0.026927674 -0.009116228
-0.20233265 -0.0133751705 0.06626716 -0.016318403 -0.06302291 -0.97306275 -0.03791393 -0.01737949
-0.04216779 0.95361954 0.10742576 -0.06604034 -0.052514035 -0.11986398 -0.06748939 -0.06326901
-0.0399502 -0.068574555 0.0046267477 -0.24386644 -0.057983518 -0.72956973 0.5001168 -0.08975715
-0.06293844 0.0126653435 0.1406942 -0.5059877 -0.12930131 0.08876325 -0.11683862 0.43149456
0.34891313 0.011420571 0.12668347 -0.021916265 0.66661066 -0.28606328 -1.2894119 0.5094174
-0.28578416 0.37746865 0.01719662 -0.24170335 -0.25421876 -0.462695 0.14481674 -0.603919
-0.43162602 -0.45197567 -0.24678458 0.009852751 -0.098201424 -0.28291094 -0.055336896 0.44784075
-0.07615411 -0.1822374 0.010867764 -0.045869336 -0.024590086 0.57283586 1.2537391 -0.092209116
-0.29338932 -0.085518666 0.12736538 -0.41409 0.02734448 0.14717422 -0.06158174 -0.20469078
-0.19705513 0.0026201773 -0.010786378 -0.043432463 -0.994991 -0.09050297 0.5068207 -0.24749555

fc3.weight f4 [4, 256]
00000000: 5471 be3c 2553 413e 60dd 0c3d 8377 2cbe
00000010: a455 943f 5c9a 1e3d 15ae c8bf bbbc 57bd
00000020: 7ec0 a83c edda 64be ca09 023f eac3 993f
00000030: c467 cb3f f2bd 2e3d 13bf 3fbe 50de bebb
00000040: d7da 76bf b015 2fbc 602e c43d 911e 743f
00000050: 568b 32bd d34d a6bc 52d6 1c3f 7898 e53b
00000060: 9e22 23bd 8622 923c 7c1b ab3c d854 e3be
00000070: 3ad1 803f b6d4 b8bd 2e77 1a3f 9ec1 fbbe
00000080: 0683 6dbe 8dc8 773f de9c 693f b1c9 c9bc
00000090: 0622 6dbe 00ee 64bc 3757 f13e eed4 9abc
000000a0: 0b22 273d aefb 453d 3221 273d 8779 89ba
000000b0: c9c2 b7bd 18d4 53bc f080 b53b 7139 dabd
000000c0: ed19 213b 5f2b 113f d013 063c 8ad9 d1bd
000000d0: 6943 98bb 0d35 91be a18e 29bf 08ff 4c3c
000000e0: 10c6 90be 6505 00bf 3f78 2bbd 59f7 87be
000000f0: d630 6a3f 4fe1 42bf bb1a 5c3c 9446 513c
00000100: d9ba 073d 5c68 873c 4489 7f3f 61eb aabe
00000110: dc6e ab3c d78d 373f f4d7 913c 85f6 55bd
00000120: 108f 1838 4257 943f 3c90 a3be 27d1 5fbe
00000130: 290b bfbd 4cf1 7cbb d787 e8bc b792 ae3c
00000140: 5175 e8be 2984 07bf bcaa e5bc 01da 153d
00000150: 502e cbbc 18de c43c cc5d 01bd 8d54 673f
00000160: c1b8 acbd e4df 72bf 6264 2c3f 4fa8 5b3f
00000170: 9899 58bf 2976 e83d 777a 0ebd eb01 1b3b
00000180: 16b6 2fbd 96e4 31bf 4cdf f13c 83df cebe
00000190: 0c83 20bc 28d3 f03a 6a1c ab3f c4b1 173f
000001a0: cabd b8be 2e18 1abd ec84 2a3c 8342 cb3c
000001b0: 0b12 2e3d 6a0c 90bf f7f9 c93e 48a6 f03e
000001c0: bdc4 68bf bdbc 5f3c 4b19 1bbf 4c3d 4a3f
000001d0: 11fe 12bf e433 8d3d 449c 0abe 931e 453f
000001e0: ca27 2b3e b93b 033d dcb3 a13d d16d 0cbf
000001f0: be39 9f3f b611 2abf 0d55 95bf c1d0 d93e
00000200: a5eb 103d afdb 5bbf bdde 0ebf e166 6e3e
00000210: 9fef 8abe b9c9 00bd 2156 1cbe 6d68 033f
00000220: eea4 253e 99e0 1cbd bc0c 08bf 07fd 3f3d
00000230: 31b8 473f 8315 f6bd 2130 8d3f 7419 8dbe
00000240: 2889 5d3d 383d 883b b7a3 7cbf 8b7b aa3f
00000250: 2971 a0be e8e1 3d3f 191a 60bf b74f 70bf
00000260: 426b 313f af23 6ebf 18dc a13c 13b4 843f
00000270: 974d bcbf 1c59 11bf 75cd ae3e 2ba4 42bd
00000280: d9cb 22be c1fc 81be 7b0d 163f f368 9d3f
00000290: 08e6 15c0 30ae c1bf 5c59 4ebe 9f95 423f
000002a0: 0884 88bc 5b77 eebf 2fa8 bebf 211c 47bf
000002b0: c450 de3c 3428 23bf 7403 67bc 6821 243d
000002c0: d045 a83e 6b5d 88bd 67cd 163f 686d 58be
000002d0: 4cf4 0f3d 4743 d63e 38e9 acbc 22c5 db3c
000002e0: 804a 9e3a 856a 833f 57ea d0bd e486 f43c
000002f0: 8792 d5be 6a15 17bf 56ec 22bc a1e3 133d
00000300: 462a 873c 2b2e e63d bf2a 61bf 1e4b bebe
00000310: 85a2 88bb 4557 2cbf 2cad 9cbe 2562 54be
00000320: d31b adbd b105 c8be 775a b6be 2080 afba
00000330: 6635 603e f1ca 82be a5c0 5fbd cdbd 47be
00000340: c500 39bf cdfe c33d 436f 51be ea46 1c3d
00000350: ab56 493f 25b5 37bf 8380 2e3f 917f 6fbf
00000360: 84d8 933e a593 b43f 1559 b2bc db4f 6c3c
00000370: 649f 3b3f 5ed2 353e 45a2 3aba 4435 f33e
00000380: df93 373f a1ea 793f 7127 0fbf d4d4 dc3d
00000390: 8520 a93d e216 67be 1415 86bc 1dcb 573f
000003a0: c0bd 2cbe e94c a43d a6be 213c cb3c 23bf
000003b0: 9927 733b 8482 30be f41f 6c3f e11a a03e
000003c0: 41ed 03bd 60a2 333c 1f76 cb3d 5ac8 90bf
000003d0: 03b8 88be 3ce7 f0be cd2a 243d a15e 283e
000003e0: 6ade 01be d2b8 9fbc 07b5 4f3d c467 353d
000003f0: 88de 143f 1380 4fbd 3b6b c03f ebb6 523f
0.023247398 0.18879373 0.034390807 -0.16842465 1.1588635 0.038721427 -1.5678126 -0.05267022
0.0205996 -0.22349139 0.50796187 1.2012913 1.5891042 0.042661615 -0.18725233 -0.0058248416
-0.96427673 -0.010686323 0.09579158 0.9535914 -0.043589912 -0.020300781 0.61264527 0.007006701
-0.039827935 0.017838728 0.020887129 -0.44400668 1.0063851 -0.090249464 0.60338104 -0.49171156
-0.23194513 0.9679039 0.91254985 -0.024632307 -0.2315751 -0.013972759 0.47136852 -0.01890036
0.04080395 0.048335724 0.040803142 -0.0010488488 -0.08972699 -0.012928985 0.005539052 -0.10655487
0.0024582103 0.56706804 0.008183435 -0.102465704 -0.004646708 -0.28360787 -0.6623326 0.012511976
-0.2827611 -0.5000823 -0.041862722 -0.265559 0.9148077 -0.76125044 0.013434107 0.012773175
0.033137176 0.016529255 0.99818826 -0.33382705 0.020926885 0.71700805 0.01780317 -0.052237052
3.637286e-05 1.1589129 -0.3194598 -0.21857129 -0.093283005 -0.0038595973 -0.028385086 0.021310193
-0.45402005 -0.52936035 -0.028035514 0.036584858 -0.024802357 0.024031684 -0.031583592 0.9036339
-0.084336765 -0.9487288 0.6734067 0.85803694 -0.84609365 0.11350662 -0.03478476 0.0023652266
-0.04289826 -0.6948942 0.029525422 -0.404049 -0.009796869 0.0018373476 1.3368046 0.59255624
-0.36082298 -0.037620716 0.010407668 0.024811989 0.042497676 -1.1253788 0.3944852 0.47001863
-0.909252 0.013655839 -0.6058547 0.7899978 -0.57418925 0.06894663 -0.13536173 0.7699978
0.16714397 0.032039378 0.078956336 -0.54855067 1.2439497 -0.66433275 -1.166658 0.4254208
0.035380978 -0.85882086 -0.5580862 0.23281433 -0.2713594 -0.031442378 -0.1526723 0.51331216
0.16176197 -0.03830013 -0.5314443 0.046872165 0.7801543 -0.12015822 1.1030313 -0.27558482
0.05408588 0.0041576885 -0.9868731 1.3318952 -0.31336334 0.7417283 -0.8753982 -0.93871635
0.6930429 -0.930232 0.01975827 1.0367454 -1.4711179 -0.56776595 0.34141126 -0.047519844
-0.15898074 -0.25388148 0.5861432 1.2297653 -2.342165 -1.5131283 -0.20151275 0.76009554
-0.01666452 -1.8630174 -1.4895076 -0.77777296 0.027138121 -0.6373322 -0.014099944 0.04007092
0.32865763 -0.06658443 0.5890717 -0.21135485 0.03514509 0.41848204 -0.021107301 0.026827399
0.0012076646 1.0266882 -0.10200947 0.029849477 -0.41713354 -0.5901705 -0.009944042 0.036105756
0.01649965 0.112392746 -0.8795585 -0.37166685 -0.0041697645 -0.6732066 -0.3060087 -0.20740564
-0.08452573 -0.39066842 -0.35615894 -0.0013389625 0.2189537 -0.25545457 -0.05462708 -0.19505997
-0.722668 0.09570084 -0.20452599 0.038153566 0.7864787 -0.7176078 0.68164843 -0.93554026
0.28876126 1.4107558 -0.021770993 0.014423336 0.73290086 0.1775603 -0.0007119517 0.47501576
0.7171001 0.9762364 -0.5591956 0.10782781 0.08258156 -0.22567323 -0.016367473 0.842943
-0.16869259 0.08022482 0.009872114 -0.6376464 0.003710246 -0.17237288 0.92236257 0.31270507
-0.032208685 0.010964006 0.09934639 -1.1311142 -0.2670289 -0.47051418 0.04007988 0.16442348
-0.126825 -0.019497309 0.05070975 0.04428841 0.58152056 -0.05065925 1.5032724 0.8231036

fc3.bias f4 [4]
00000000: a81d 13bf 4d1c bfbd 9996 703e 04ee b83c
-0.57467127 -0.0933157 0.23494948 0.022574432
