trained_models/dqn_model_1000.pth (torch, 278735 bytes, 6 tensors)

fc1.weight f4 [256, 8]
-0.28504848 -0.6641367 0.98272675 -0.17839794 0.29936016 -0.18104804 -1.3433583 0.02791239
-0.009095783 -0.0054224734 -0.024650471 -0.012449498 2.5657947 0.026851708 -0.3736217 -0.14208733
-1.7652813 -5.888016 0.013801822 -0.03711457 -0.35746813 0.06013111 -0.047084242 -0.03513236
-0.659962 1.8166869 1.3335623 -0.12164272 0.85534066 -0.22403952 0.46892896 -0.5342779
0.007823913 0.038621087 -2.184254 1.1369159 0.046481535 -0.36109465 0.06181624 0.45823777
-0.46681577 -1.2821072 0.046810556 -1.2427474 0.28369805 0.18120682 -1.3004324 -0.64286363
-1.9396139 0.5582372 -0.19972032 0.19823496 0.81490195 -0.30886593 0.56738967 0.04720847
1.2437687 -0.7711231 -0.13599366 -0.3029265 0.9196744 0.16682558 0.17518875 0.009884891
1.3373787 0.64214486 -1.3665131 0.8726527 -0.38356537 -0.004714866 0.15865442 0.2855409
-0.93666214 2.7939966 -0.40728125 1.291684 1.3544489 -0.63081366 -0.3269489 0.03911386
-0.13933304 1.6525027 0.19896452 0.8792714 -0.30644307 0.26091757 -0.11252375 -0.0376149
1.940586 -4.903891 0.2815403 0.14694339 -0.27108988 -0.110279754 -0.039145965 0.14350286
0.042876136 -0.5701104 6.4354215 2.4554815 -0.08826444 -0.54973733 0.14191845 0.2487212
0.6592108 -2.2149875 -1.3821322 0.3337949 -0.16844775 0.2508412 -0.110706285 -1.3174623
1.3776978 0.022649331 -0.2968403 0.050106883 0.15612385 0.03639287 -0.132414 0.0028859153
0.13348614 1.1044488 0.107994035 0.2830021 0.7846787 -0.2092455 0.47964206 -0.6954844
0.116192915 0.5751872 1.9230089 1.7410042 -0.5509091 -0.12477845 0.555882 -0.4804826
-0.09083401 0.17342682 0.09594462 -0.16820665 -1.8128264 0.72926205 0.3647775 -0.0149541255
1.3112035 -0.408207 0.27657655 -0.2793894 -0.22572188 -0.07565351 0.0002848491 -0.16730197
-0.17623468 0.076463334 -0.10233522 0.23851079 2.605887 0.0007301308 0.111091435 0.2761524
2.4390435 0.46826538 -0.27848592 0.3270934 -0.1700471 0.050211456 -0.033862732 -0.087458596
-0.97279936 -2.7571754 0.35386288 -0.9647302 -0.11331792 -0.07427713 -0.4500797 -0.16523655
0.91034156 0.6774185 -0.67530817 0.31646973 -0.2550725 0.10694987 -0.3495525 -0.291698
-1.080219 0.28677624 -0.16672806 -0.16376492 -0.24410069 0.36049083 -1.0084268 -0.29506654
-0.1535034 -1.087811 0.27155256 -0.44380692 1.5803418 -0.38490352 -0.13911244 0.10569936
-0.17547706 -6.014673 -0.21576995 -0.6097281 -0.12287881 0.017450573 -0.026308795 -0.049620245
0.3756172 -2.9808612 0.2625547 0.41318822 0.7350103 0.37741968 0.5695743 -0.11632226
0.75903356 -2.1950178 1.4109625 -0.31349328 0.613529 -1.0404797 -0.5215004 -0.050478462
-1.2788473 -2.1615694 0.1924645 -0.1748713 0.30995384 -0.24957366 -0.10016849 -1.0768982
-1.3988683 0.7502076 0.053512726 -0.28332826 -0.2706655 0.746747 -0.7127662 -0.39310658
1.2973466 -0.12231702 -0.22947246 -0.13356419 -0.32477748 -0.12372108 0.09935088 0.31364113
-0.5356005 -2.408387 -2.9064229 -1.1566043 0.4723424 -0.062179547 -0.03859317 0.022567164
00000000: e0f1 91be dd04 2abf fb93 7b3f f3ad 36be
00000010: bc45 993e a864 39be 2af3 abbf 86a8 e43c
00000020: 7b06 15bc 01af b1bb c9ef c9bc fbf8 4bbc
00000030: fb35 2440 1df8 db3c 584b bfbe 577f 11be
00000040: bdf4 e1bf a16a bcc0 0a21 623c 7305 18bd
00000050: 1006 b7be 0a4c 763d 68db 40bd f3e6 0fbd
00000060: 45f3 28bf 3289 e83f 2bb2 aa3f d21f f9bd
00000070: 9bf7 5a3f 9e6a 65be 7517 f03e 70c6 08bf
00000080: df2f 003c 2531 1e3d d1ca 0bc0 7686 913f
00000090: 6c63 3e3d 66e1 b8be 0733 7d3d 249e ea3e
000000a0: 7a02 efbe 171c a4bf 6dbc 3f3d 5912 9fbf
000000b0: df40 913e 488e 393e 9274 a6bf b692 24bf
000000c0: 4545 f8bf a2e8 0e3f 7c83 4cbe 1bfe 4a3e
000000d0: 6a9d 503f ad23 9ebe 7340 113f ab5d 413d
000000e0: d033 9f3f 5368 45bf ec41 0bbe 2f19 9bbe
000000f0: c86f 6b3f 53d4 2a3e ae64 333e 3df4 213c
00000100: 3a2f ab3f 9b63 243f e7e9 aebf 2b66 5f3f
00000110: ae62 c4be 2a7f 9abb 4e76 223e 6b32 923e
00000120: 17c9 6fbf d7d0 3240 2b87 d0be e755 a53f
00000130: 955e ad3f 017d 21bf d965 a7be db35 203d
00000140: 52ad 0ebe 3585 d33f 5bbd 4b3e ee17 613f
00000150: 1be6 9cbe fd96 853e da72 e6bd 1512 1abd
00000160: 1f65 f83f adec 9cc0 0d26 903e 5478 163e
00000170: 4bcc 8abe 5ada e1bd 8557 20bd 6af2 123e
00000180: e39e 2f3d c1f2 11bf f9ee cd40 9c26 1d40
00000190: fdc3 b4bd 96bb 0cbf 1253 113e c5b0 7e3e
000001a0: 0ac2 283f 5bc2 0dc0 b5e9 b0bf 2ae7 aa3e
000001b0: 917d 2cbe 426e 803e fab9 e2bd 9ba2 a8bf
000001c0: 6758 b03f 178b b93c 74fb 97be e03c 4d3d
000001d0: eede 1f3e b110 153d 8997 07be a021 3d3b
000001e0: 97b0 083e 945e 8d3f fa2b dd3d a7e5 903e
000001f0: b4e0 483f 7444 56be a593 f53e 440b 32bf
00000200: 8df6 ed3d 783f 133f 2825 f63f 3ad9 de3f
00000210: 6108 0dbf d88b ffbd 484e 0e3f d101 f6be
00000220: 2e07 babd cd96 313e 9d7e c43d 5d3e 2cbe
00000230: b20a e8bf ebb0 3a3f 1ec4 ba3e 2602 75bc
00000240: 84d5 a73f 8200 d1be 719b 8d3e 210c 8fbe
00000250: a323 67be 3af0 9abd cd57 9539 3551 2bbe
00000260: dd76 34be cf98 9c3d 2195 d1bd 2c3c 743e
00000270: dac6 2640 4066 3f3a e883 e33d d963 8d3e
00000280: 4a19 1c40 7bc0 ef3e b595 8ebe c978 a73e
00000290: d420 2ebe 87aa 4d3d a6b3 0abd 7e1d b3bd
000002a0: 6109 79bf 9075 30c0 842d b53e 8ff8 76bf
000002b0: 3a13 e8bd 9c1e 98bd d970 e6be c533 29be
000002c0: 250c 693f 4c6b 2d3f ffe0 2cbf 5208 a23e
000002d0: dd98 82be 8908 db3d 8cf8 b2be 7159 95be
000002e0: 9e44 8abf 56d4 923e c3ba 2abe feb1 27be
000002f0: 88f5 79be 4192 b83e 2114 81bf f612 97be
00000300: ff2f 1dbe 643d 8bbf f008 8b3e a93a e3be
00000310: a448 ca3f 1312 c5be 7e73 0ebe e878 d83d
00000320: 42b0 33be 3478 c0c0 ccf2 5cbe 2417 1cbf
00000330: e3a7 fbbd 81f4 8e3c 8b85 d7bc 993e 4bbd
00000340: e650 c03e 6ec6 3ec0 926d 863e 688d d33e
00000350: a329 3c3f 273d c13e 9fcf 113f 5d3a eebd
00000360: 0650 423f 2c7b 0cc0 6b9a b43f 3182 a0be
00000370: 3d10 1d3f 702e 85bf 0d81 05bf 81c2 4ebd
00000380: 45b1 a3bf 2757 0ac0 6a15 453e 7611 33be
00000390: 45b2 9e3e 3d90 7fbe 2325 cdbd cdd7 89bf
000003a0: 1e0e b3bf 9b0d 403f 2930 5b3d 6710 91be
000003b0: ab94 8abe d02a 3f3f d877 36bf 4445 c9be
000003c0: 740f a63f 5981 fabd d4fa 6abe 0dc5 08be
000003d0: 3c49 a6be 7a61 fdbd 7978 cb3d 9295 a03e
000003e0: 1d1d 09bf 0323 1ac0 d502 3ac0 9c0b 94bf
000003f0: ddd6 f13e fbaf 7ebd df13 1ebd c6de b83c

fc1.bias f4 [256]
0.028606031 0.004966998 0.14303428 -0.5973441 -0.0052747545 -0.37597814 -0.6673743 -0.2905872
-0.58141327 0.5835327 0.14454618 -0.66183275 -0.4030868 -0.09864066 -0.10441146 -0.03573726
-0.33504912 -0.72513306 -0.016261708 -0.0074370145 -0.05955846 -0.14693266 0.29763126 0.3718697
-0.6286414 -0.0005493959 -0.97699356 -0.3028634 -0.071522474 -0.0009889954 -0.4475354 -0.4418178
0.0067407223 0.043680564 -0.029234286 0.2404296 -0.27359173 -0.32627442 -0.19325677 -0.015733471
-0.028660938 -0.38005996 -0.0746372 -0.431972 -0.54201216 -0.09154314 0.069639824 0.13651437
-0.519689 -0.3798676 -0.29909292 0.15377522 0.19741312 -0.43094775 -0.66995174 -0.39653412
0.18530002 0.31465703 0.35010538 -0.40504113 -0.35036927 0.4836199 -0.18009147 -0.055857334
-0.14344087 -1.3660293 -0.0044265958 -1.351933 0.12702607 -0.0018045115 -0.60672253 -0.42651594
-0.16884771 -1.0244856 -0.16937897 0.04234984 0.2730606 -0.35512337 0.16446126 -0.016741855
0.26921403 -0.8980018 -0.45689696 -0.376631 -0.2595008 0.5921806 -0.3124638 -0.4435709
0.0010071484 -0.53099865 -0.57815015 -0.1855223 -0.2710861 -0.113951154 -0.15058869 0.2514107
0.08735492 -0.30765274 0.42245072 0.10323843 -0.024822185 0.44145072 -0.5399082 -0.5633262
0.02742485 0.5092549 -0.38053754 -1.2068038 -0.772307 0.16112462 0.22724718 0.41680527
0.16122468 -0.73340064 -0.05451437 -0.025433967 -0.15910009 -0.5708789 -0.3656215 -0.544133
0.15915355 0.12305481 -0.3379027 0.30115223 -0.505565 0.15995887 -0.32835686 -0.35865188
0.3132882 -0.7730105 -0.43054354 0.2619577 0.2458754 -0.22138058 0.23373823 -0.2567826
-0.06350568 -0.8437074 0.6083961 -0.20174432 0.014979676 -0.11645696 -0.6156406 -0.7142667
-0.89047647 0.37317386 -0.60504025 -0.018844644 -0.59031343 -0.54556894 -0.21836728 0.13981727
0.7873612 -0.33056962 -0.06334574 -0.6370553 0.3085734 -0.4665541 0.29595476 0.32455224
-0.945769 0.07673541 0.42605522 -0.7533377 0.0057161264 0.024597386 -0.47623777 0.038001727
-0.66812915 0.18663399 -0.27310675 -0.48097432 -0.50968534 -0.59879184 0.06721561 0.30812913
-0.04440703 -0.545083 -0.12989017 0.015004391 0.05846921 -0.021477481 -0.030973284 0.8555774
-0.33728775 0.23387145 -0.82549906 -0.17439987 -0.89587986 0.33810332 -0.65159327 0.38460627
-0.22699265 0.5374394 -0.34407616 -0.49592066 0.14252393 0.43558004 -0.34191245 -0.12293099
-0.59302557 -0.9902395 0.34657386 -0.92280996 -0.30339026 0.17296743 -0.3782748 -0.4427556
0.2599761 -0.8161224 -0.047679957 0.7222134 -0.23607677 0.03250302 0.29857665 0.19305247
-0.22434685 -0.29560563 -0.4454762 -0.91054726 -1.0232549 -0.47041148 0.0633273 -0.30483994
-0.21126655 0.6028249 0.141701 0.3197159 0.015388568 0.24206325 0.45354927 0.0044893785
-1.831656 -0.9784944 -0.19654863 -0.30798244 -0.12174301 -0.44433364 -0.47704232 -0.17458737
-0.25487173 0.23222415 -0.4678565 -0.5944713 0.7384162 0.7382732 -0.21253876 0.13018383
0.3147993 -0.21657802 -0.111295186 -0.82835203 -1.3919569 0.0008690637 0.2531257 -0.9469811
00000000: 3257 ea3c 33c2 a23b 9477 123e 8beb 18bf
00000010: d9d7 acbb 3580 c0be 0bd9 2abf d8c7 94be
00000020: 80d7 14bf 6662 153f ea03 143e df6d 29bf
00000030: 6561 cebe 1d04 cabd add5 d5bd 3c61 12bd
00000040: 8f8b abbe 52a2 39bf 4637 85bc 33b2 f3bb
00000050: 92f3 73bd 8475 16be 2063 983e b565 be3e
00000060: a5ee 20bf 5605 10ba 401c 7abf e910 9bbe
00000070: 607a 92bd 2ea1 81ba 5c23 e5be f135 e2be
00000080: 47e1 dc3b 64ea 323d be7c efbc 2d33 763e
00000090: 3714 8cbe 710d a7be 1ae5 45be 7be3 80bc
000000a0: 58ca eabc 3897 c2be 63db 98bd 6f2b ddbe
000000b0: 4fc1 0abf f87a bbbd 539f 8e3d 6cca 0b3e
000000c0: 570a 05bf 027e c2be b522 99be 4077 1d3e
000000d0: aa26 4a3e 2fa5 dcbe f581 2bbf 8506 cbbe
000000e0: 4abf 3d3e ba1a a13e 0341 b33e 8d61 cfbe
000000f0: 9a63 b3be 079d f73e e669 38be a9ca 64bd
00000100: 2ae2 12be 0cda aebf fa0c 91bb 240c adbf
00000110: 1f13 023e 5c85 ecba 2b52 1bbf 4c60 dabe
00000120: 6ae6 2cbe 5822 83bf ae71 2dbe 0777 2d3d
00000130: 99ce 8b3e bbd2 b5be 8868 283e 3726 89bc
00000140: 6cd6 893e 72e3 65bf 66ee e9be c7d5 c0be
00000150: 4add 84be 2699 173f 41fb 9fbe ba1b e3be
00000160: 4b02 843a 87ef 07bf a601 14bf 8ff9 3dbe
00000170: cccb 8abe 395f e9bd ec33 1abe e7b8 803e
00000180: 23e7 b23d a984 9dbe 764b d83e ac6e d33d
00000190: e557 cbbc d405 e23e 6c37 0abf 2536 10bf
000001a0: 14aa e03c 875e 023f d1d5 c2be 8c78 9abf
000001b0: e9b5 45bf dafd 243e 7cb3 683e 8067 d53e
000001c0: 1518 253e 25c0 3bbf 764a 5fbd e55a d0bc
000001d0: 22eb 22be 1f25 12bf be32 bbbe 4d4c 0bbf
000001e0: 26f9 223e 2904 fc3d 9501 adbe a030 9a3e
000001f0: b56c 01bf 42cc 233e 641e a8be 38a1 b7be
00000200: 5067 a03e 04e4 45bf 3470 dcbe 521f 863e
00000210: c3c6 7b3e 97b1 62be 1359 6f3e 0279 83be
00000220: 440f 82bd 35fd 57bf d9bf 1b3f 1096 4ebe
00000230: 516d 753c fd80 eebd 9f9a 1dbf 2fda 36bf
00000240: 44f6 63bf a510 bf3e ebe3 1abf 1560 9abc
00000250: c81e 17bf 68aa 0bbf ac9b 5fbe 422c 0f3e
00000260: 8190 493f 6c40 a9be 69bb 81bd 0e16 23bf
00000270: 55fd 9d3e 2ee0 eebe 6287 973e b62b a63e
00000280: eb1d 72bf 7427 9d3d e923 da3e bdda 40bf
00000290: 584e bb3b 7580 c93c 70d5 f3be b3a7 1b3d
000002a0: 830a 2bbf fb1c 3f3e a6d4 8bbe 4442 f6be
000002b0: bd7a 02bf 6c4a 19bf 56a8 893d 1ac3 9d3e
000002c0: 25e4 35bd 8f8a 0bbf ee01 05be fad4 753c
000002d0: 697d 6f3d 8bf1 afbc afbb fdbc 1f07 5b3f
000002e0: fbb0 acbe ff7b 6f3e e853 53bf e195 32be
000002f0: 6258 65bf e11b ad3e d1ce 26bf 1deb c43e
00000300: c370 68be a195 093f c02a b0be 50e9 fdbe
00000310: cbf1 113e 5904 df3e 260f afbe 3ec3 fbbd
00000320: 86d0 17bf 5680 7dbf 2172 b13e 463d 6cbf
00000330: f855 9bbe 601e 313e 3cad c1be ddb0 e2be
00000340: 961b 853e 66ed 50bf 0f4c 43bd fae2 383f
00000350: 1cbe 71be e321 053d 0adf 983e 8caf 453e
00000360: 2ebb 65be 9f59 97be 7515 e4be a019 69bf
00000370: 04fa 82bf c6d9 f0be beb1 813d fb13 9cbe
00000380: 4256 58be bc52 1a3f 111a 113e cdb1 a33e
00000390: 5520 7c3c 6edf 773e 9c37 e83e a31b 933b
000003a0: b473 eabf 9c7e 7abf 0b44 49be e0af 9dbe
000003b0: 6654 f9bd b37f e3be e43e f4be 08c7 32be
000003c0: 8c7e 82be 2bcc 6d3e e38a efbe 452f 18bf
000003d0: d808 3d3f 79ff 3c3f c3a3 59be e94e 053e
000003e0: 602d a13e a1c6 5dbe bbee e3bd e10e 54bf
000003f0: a52b b2bf e1d1 633a b199 813e 5a6d 72bf

fc2.weight f4 [256, 256]
0.051568434 -0.04606948 -0.074906394 -0.067923576 0.020615073 0.00864768 -0.026360389 -0.09690743
-0.041056592 -0.026542159 0.0055486215 0.030704089 -0.037297048 -0.04691232 0.019896515 -0.018800039
0.014901916 0.0315204 -0.031381976 -0.010962279 0.011226651 0.052773364 -0.021842854 -0.059651785
-0.062103562 -0.029233137 0.035503365 -0.047818776 -0.007409136 -0.014785036 -0.042339493 -0.030746741
-0.022671483 -0.017222345 0.03827091 -0.028340302 0.019224929 -0.04879789 -0.034668747 0.047622867
0.04545629 -0.0013969555 -0.039041266 0.037542667 -0.020273754 -0.038972408 0.0032861754 0.015693564
-0.062337242 -0.019387184 -0.08690336 0.0049826326 -0.09058882 -0.032228768 0.011128679 -0.0362707
-0.041324187 -0.036511008 -0.04518498 0.037316233 -0.0051391795 0.014677504 -0.009387916 0.010237828
-0.032391224 0.0462678 -0.0576041 -0.010017544 -0.0659366 0.027763002 0.007600598 0.00026349723
0.034385145 0.009138025 -0.03396973 0.05093963 -0.011568422 -0.0639546 0.037419546 0.008479722
0.0029609648 -0.05720648 -0.027158648 -0.062251814 -0.049654104 -0.004475537 -0.034357306 0.040537447
0.046172567 -0.011759641 0.024399899 0.024510428 0.014541014 -0.0232664 0.004484847 -0.017120047
-0.059141584 -0.024572957 -0.047072694 -0.07340705 0.027690677 -0.06002339 -0.00082428433 -0.027379788
-0.031844534 0.045769002 -0.0003140778 -0.051501922 -0.032827366 -0.056894198 -0.047506943 -0.062451076
-0.0352072 0.0091023 -0.044322066 -0.005892531 -0.032459453 -0.07436363 -0.07330855 -0.033872336
-0.014407196 -0.041747004 0.018229604 -0.09759349 -0.06018973 -0.052352406 0.060952097 -0.025762863
0.0321249 -0.027936846 -0.07857861 -0.007607483 -0.018714866 0.05141667 -0.056380946 -0.01715854
-0.025832327 -0.012717592 0.00022235897 -0.0137277525 -0.058038898 -0.056796134 0.045304425 -0.04440108
0.013815691 -0.056465425 -0.060881454 0.04800664 -0.064633936 -0.021378841 -0.06690807 -0.0025561985
0.012745492 -0.03979481 0.008751009 -0.02363658 -0.0026170735 -0.06409715 -0.07167753 -0.028047888
0.0053490326 -0.0224823 -0.014624937 -0.022323914 -0.028977154 -0.045869082 -0.024833806 -0.057951808
-0.04549684 -0.07580934 -0.017680235 -0.0134284785 -0.05485519 -0.07042331 -0.002271806 -0.039757147
-0.0119545385 0.049455486 0.036040843 -0.01764303 -0.06174843 -0.06646576 -0.020014046 0.041010417
0.0136119425 0.0076414063 -0.0059570973 0.0013497984 0.030690603 -0.038993943 -0.018708512 -0.0023574869
0.04830424 0.0031174687 0.045521125 0.028423756 -0.010906971 -0.055016406 0.012882605 -0.023161054
0.013824739 -0.019512836 0.006782137 0.029390581 -0.043166377 0.057000004 0.044371963 0.057195127
-0.002625314 -0.091574125 -0.06996131 -0.048210647 -0.098486476 -0.001243169 -0.009164221 0.01988701
-0.006678452 -0.09569969 0.025480784 -0.043271497 -0.008673935 -0.06755634 -0.007943485 -0.070722535
-0.030548899 -0.030104805 -0.03992927 -0.06293198 -0.024433361 0.0070656687 -0.06377453 -0.078750014
0.0151510965 -0.011688072 -0.04294462 0.017717503 -0.021371864 -0.017947823 -0.054981835 -0.075767495
-0.053308286 -0.060520843 -0.038214765 -0.057848863 -0.060324676 -0.0613737 -0.08797731 0.0008191314
-0.03798534 0.015647339 -0.06906404 0.0150645925 -0.03182948 -0.012523413 -0.039097793 0.004240796
00000000: 6c39 533d 5ab3 3cbd 8668 99bd 841b 8bbd
00000010: f1e0 a83c 00af 0d3c bef1 d7bc 6777 c6bd
00000020: f52a 28bd f16e d9bc 36d1 b53b 2487 fb3c
00000030: cac4 18bd 2227 40bd 04fe a23c 8a02 9abc
00000040: 2a27 743c 891b 013d 638a 00bd 219b 33bc
00000050: fdef 373c e228 583d c9ef b2bc 6e55 74bd
00000060: 4e60 7ebd 557a efbc fa6b 113d 9fdd 43bd
00000070: 56c8 f2bb f03c 72bc 2d6c 2dbd 97e0 fbbc
00000080: 8cb9 b9bc e015 8dbc f5c1 1c3d ec29 e8bc
00000090: 997d 9d3c 4ce0 47bd d100 0ebd 3210 433d
000000a0: 6030 3a3d 0c1a b7ba bce9 1fbd 57c6 193d
000000b0: 2515 a6bc 88a1 1fbd e05c 573b ca8f 803c
000000c0: 5655 7fbd dfd1 9ebc 64fa b1bd 5a45 a33b
000000d0: a286 b9bd 5002 04bd 1055 363c 9690 14bd
000000e0: 8d43 29bd 918c 15bd e313 39bd e8d8 183d
000000f0: 9066 a8bb ea79 703c c6cf 19bc 90bc 273c
00000100: a9ac 04bd 4e83 3d3d 47f2 6bbd a020 24bc
00000110: c509 87bd 3c6f e33c 700e f93b 0026 8a39
00000120: 70d7 0c3d a8b7 153c d823 0bbd 13a6 503d
00000130: 7b89 3dbc a1fa 82bd 3d45 193d 88ee 0a3c
00000140: bf0c 423b 5851 6abd d07b debc c2fb 7ebd
00000150: 1a62 4bbd 87a7 92bb 3fba 0cbd 980a 263d
00000160: 721f 3d3d 82ab 40bc 4ce2 c73c 18ca c83c
00000170: 6f3d 6e3c 2d99 bebc a0f5 923b 573f 8cbc
00000180: 723e 72bd 3a4d c9bc 4ccf 40bd 6f56 96bd
00000190: 8fd7 e23c 16db 75bd c914 58ba 944b e0bc
000001a0: 6a6f 02bd 4778 3b3d cfaa a4b9 aef3 52bd
000001b0: fd75 06bd e409 69bd a496 42bd b3cc 7fbd
000001c0: 6d35 10bd d021 153c 0e8b 35bd 2216 c1bb
000001d0: 34f4 04bd f54b 98bd cb22 96bd b8bd 0abd
000001e0: 290c 6cbc e8fe 2abd 4056 953c 18df c7bd
000001f0: 8289 76bd 7a6f 56bd e8a8 793d a40c d3bc
00000200: 6695 033d d0db e4bc d3ed a0bd 3148 f9bb
00000210: eb4f 99bc 499a 523d b5ef 66bd 1190 8cbc
00000220: 519e d3bc 725d 50bc 0829 6939 5eea 60bc
00000230: 32ba 6dbd 10a3 68bd 2291 393d e8dd 35bd
00000240: 355b 623c 4a48 67bd d55e 79bd 9ca2 443d
00000250: cc5e 84bd ae22 afbc 1907 89bd e585 27bb
00000260: 78d2 503c e2ff 22bd 6460 0f3c 80a1 c1bc
00000270: 3583 2bbb 5e45 83bd abcb 92bd afc4 e5bc
00000280: f046 af3b cd2c b8bc 6f9d 6fbc a4e0 b6bc
00000290: 7f61 edbc 38e1 3bbd 4470 cbbc e05e 6dbd
000002a0: e55a 3abd ed41 9bbd 24d6 90bc 1f03 5cbc
000002b0: d6af 60bd 193a 90bd 94e2 14bb 64d8 22bd
000002c0: f8dc 43bc d691 4a3d 909f 133d 1e88 90bc
000002d0: eceb 7cbd 331f 88bd 7ff4 a3bc 8afa 273d
000002e0: a004 5f3c c364 fa3b c133 c3bb b8eb b03a
000002f0: dc6a fb3c 1db8 1fbd 9842 99bc 1180 1abb
00000300: abda 453d 724e 4c3b 5c74 3a3d f0d8 e83c
00000310: 27b3 32bc e258 61bd 9011 533c 40bc bdbc
00000320: 2881 623c 62d9 9fbc b03c de3b 84c4 f03c
00000330: 3acf 30bd d678 693d 60bf 353d 7045 6a3d
00000340: 760d 2cbb 378b bbbd e047 8fbd 8778 45bd
00000350: 47b3 c9bd d4f1 a2ba 8725 16bc 15ea a23c
00000360: ead6 dabb 33fe c3bd 14bd d03c 743d 31bd
00000370: 1f1d 0ebc fa5a 8abd 6425 02bc fad6 90bd
00000380: af41 fabc 5a9e f6bc e08c 23bd 7be2 80bd
00000390: 7928 c8bc 2087 e73b 399c 82bd b047 a1bd
000003a0: 4e3c 783c 547f 3fbc b3e6 2fbd 4c24 913c
000003b0: 0c14 afbc 5007 93bc a234 61bd fd2b 9bbd
000003c0: ca59 5abd b4e4 77bd 1687 1cbd eef2 6cbd
000003d0: 0217 77bd fd62 7bbd 732d b4bd faba 563a
000003e0: 8496 1bbd d92e 803c 7371 8dbd 7bd1 763c
000003f0: a15f 02bd 002f 4dbc 0225 20bd 60f6 8a3b

fc2.bias f4 [256]
-0.06493152 0.24924475 -0.052531283 -0.099395186 0.9601091 -0.06760463 -0.14270315 0.16790539
0.01626254 -0.060063694 -0.36866027 -0.122853994 -0.015233899 0.3952812 0.58744836 0.9305567
-0.016462129 0.120550185 -0.08664561 -0.04952845 0.7692679 -0.08398339 0.046863817 0.55999446
-0.33123866 0.30703843 -0.008853327 0.09576926 0.034772698 -0.076456755 0.003746062 -0.028559998
-0.11701036 0.4817637 1.351641 -0.28387955 0.9627377 -0.41312954 -0.07641763 -0.3109323
-0.3070819 -0.27333882 -0.054870285 -0.1899466 0.6289654 0.19086123 0.7179732 -0.096732534
-0.73530436 0.07294323 0.26646823 0.06591017 -0.23536389 -0.23035416 -0.11198315 0.5918237
0.561481 0.017344998 -0.3654341 -0.09917854 0.2480523 -0.0072151218 0.22337656 -0.8299313
-0.1504787 -0.33920112 0.28685883 0.72749996 -0.04036716 -0.07774379 -0.04221497 -0.91766036
-0.043198083 -0.06734271 0.41051 0.37384647 -0.08319196 0.15912737 -0.08492486 -0.38073495
-0.0866174 -0.15763165 -0.2527711 0.33205143 0.008088506 -0.6124574 -0.06716666 -0.013045086
0.09098219 0.35703802 0.7680817 0.021213695 -0.041240457 0.027981505 -1.3021475 -0.18624341
-0.10843574 -0.038416494 -0.45133653 -0.5820739 -0.0043497817 -0.21226716 -0.04914555 -0.10810175
-0.067748986 0.18549927 -0.2246607 -0.06836844 -0.05662626 0.22850586 -0.22810757 -0.053973213
0.057566296 -0.09908636 -0.0218356 -0.5601848 -0.09656927 -0.06164739 -0.06004213 -0.008119046
-0.18005471 0.4668077 -0.47939 0.111690216 -0.37186775 0.57935256 -0.0048736907 -0.088612996
-0.032154195 -0.07626338 -0.083757274 -0.025153494 -0.10307907 -0.44812542 -0.040963825 -0.04143809
-0.042096958 -0.2656305 -0.015056868 -0.12157319 -0.06626176 -0.055318695 -0.5997981 -0.2953491
-0.18067461 -0.12203474 -0.07374043 -0.084689625 0.5573676 0.28228775 1.2757488 -0.050606012
-0.46201354 -0.007101708 -0.010667142 -0.049977746 -0.25031212 0.295611 0.026971605 -0.37426955
-0.20325546 -0.052008856 -0.18111736 -0.014984835 0.38961694 -0.01056953 0.3251134 -0.010604933
-0.15680881 -0.022402214 0.083461136 -0.06934518 -0.028403163 0.58399135 -0.039860625 0.5666222
0.2063266 0.0076338486 1.8160588 0.28333414 0.4228715 -0.0997313 0.18507053 -0.022892991
0.015614857 -0.024440838 -0.006836412 -0.012727133 0.30978858 -0.11990662 1.8129139 0.37453228
-0.42948785 -0.10790368 -0.031702407 -0.28918105 0.30983472 -0.03639687 0.5181635 0.018148102
-0.057900436 0.030589372 -0.047725234 -0.08860323 0.27823585 -0.10568115 -0.10618253 -0.13985248
0.2675895 0.6508864 -0.27524564 -0.5519778 -0.10538096 -0.38919345 -0.08071088 -0.12946735
-0.20597997 0.23889244 0.027138414 -0.3372961 -0.028151944 -0.022617484 -0.09904814 -0.42729285
0.10998342 -0.05090266 -1.1598655 -0.07030756 -0.01421905 0.0052908133 -0.041066505 -0.17756452
1.2070295 -0.028246555 -0.052716937 -0.049801126 -0.0016161028 -0.15442422 0.39752668 -0.18876311
0.473822 -0.17572021 -0.08223685 -0.11452233 -0.11951703 -0.29814044 -0.07140198 -0.057507608
-0.03311178 -0.060212716 -0.045813896 -0.028378928 -0.31081057 -0.51601946 -0.01587525 0.019745974
00000000: d1fa 84bd 043a 7f3e 0b2b 57bd b48f cbbd
00000010: b6c9 753f 4c74 8abd c620 12be 64ef 2b3e
00000020: 0539 853c 5905 76bd 0ac1 bcbe e09a fbbd
00000030: 9a97 79bc 4c62 ca3e 0463 163f f738 6e3f
00000040: 96db 86bc 04e3 f63d 4173 b1bd 58de 4abd
00000050: beee 443f 7cff abbd 46f4 3f3d cc5b 0f3f
00000060: 1d98 a9be 2434 9d3e 8b0d 11bc ac22 c43d
00000070: d16d 0e3d 5c95 9cbd 7e80 753b a8f6 e9bc
00000080: 21a3 efbd bba9 f63e 9302 ad3f a958 91be
00000090: fa75 763f b785 d3be d980 9cbd 8532 9fbe
000000a0: d739 9dbe 11f3 8bbe aabf 60bd 5d81 42be
000000b0: e003 213f 2071 433e 17cd 373f b51b c6bd
000000c0: e83c 3cbf 4363 953d 866e 883e e9fb 863d
000000d0: 3b03 71be f6e1 6bbe 6c57 e5bd c281 173f
000000e0: 38bd 0f3f 1917 8e3c 2e1a bbbe 1e1e cbbd
000000f0: 6c01 7e3e d46c ecbb d3bc 643e 6176 54bf
00000100: 1717 1abe c5ab adbe 29df 923e 703d 3a3f
00000110: 0958 25bd 2338 9fbd 9be9 2cbd caeb 6abf
00000120: 79f0 30bd faea 89bd 5e2e d23e ce68 bf3e
00000130: 8c60 aabd 49f2 223e 16ed adbd b1ef c2be
00000140: 7764 b1bd 316a 21be 376b 81be a502 aa3e
00000150: a785 043c 02ca 1cbf ad8e 89bd 0ebb 55bc
00000160: df54 ba3d b0cd b63e 01a1 443f 58c8 ad3c
00000170: c1eb 28bd 7839 e53c c5ac a6bf 98b6 3ebe
00000180: 8f13 debd 9d5a 1dbd 9515 e7be cc02 15bf
00000190: 9d88 8ebb 905c 59be d84c 49bd 7364 ddbd
000001a0: fbbf 8abd 85f3 3d3e 740d 66be c104 8cbd
000001b0: f0f0 67bd 71fd 693e 0895 69be 0413 5dbd
000001c0: a3ca 6b3d caed cabd 92e0 b2bc 4568 0fbf
000001d0: 1cc6 c5bd f981 7cbd bdee 75bd bf05 05bc
000001e0: 4360 38be 6b01 ef3e 9b72 f5be d7bd e43d
000001f0: 7365 bebe 7350 143f 7bb3 9fbb bb7a b5bd
00000200: 1eb4 03bd fa2f 9cbd ef88 abbd b30e cebc
00000210: 1f1b d3bd b270 e5be afc9 27bd fdba 29bd
00000220: dc6d 2cbd b900 88be 15b1 76bc 5dfb f8bd
00000230: 3fb4 87bd db95 62bd 5e8c 19bf ff37 97be
00000240: c402 39be 5aed f9bd 3905 97bd c171 adbd
00000250: a5af 0e3f 0588 903e bd4b a33f 4048 4fbd
00000260: 0a8d ecbe 72b5 e8bb 3dc5 2ebc 77b5 4cbd
00000270: e928 80be 535a 973e 8ef3 dc3c 42a0 bfbe
00000280: 3322 50be 3d07 55bd d476 39be f482 75bc
00000290: df7b c73e d22b 2dbc 4375 a63e 50c0 2dbc
000002a0: 7d92 20be d984 b7bc aced aa3d d904 8ebd
000002b0: c0ad e8bc 7580 153f e544 23bd 270e 113f
000002c0: 4847 533e 5d25 fa3b 9d74 e83f 2c11 913e
000002d0: 9d82 d83e ec3f ccbd 2183 3d3e 158a bbbc
000002e0: 75d5 7f3c 2738 c8bc fb03 e0bb 7785 50bc
000002f0: 9c9c 9e3e 9a91 f5bd 900d e83f b2c2 bf3e
00000300: d5e5 dbbe 9bfc dcbd 62da 01bd 8a0f 94be
00000310: a8a2 9e3e e214 15bd 5da6 043f 54ab 943c
00000320: 0229 6dbd 9096 fa3c 897b 43bd 9c75 b5bd
00000330: ee74 8e3e 5c6f d8bd 3a76 d9bd 7d35 0fbe
00000340: 7e01 893e 7ea0 263f ffec 8cbe 6b4e 0dbf
00000350: f9d1 d7bd 5d44 c7be bf4b a5bd 1793 04be
00000360: 6aec 52be 38a0 743e 6151 de3c 13b2 acbe
00000370: e89e e6bc 4d48 b9bc c0d9 cabd 21c6 dabe
00000380: fd3e e13d 4f7f 50bd 7976 94bf 69fd 8fbd
00000390: 05f7 68bc 8f5e ad3b 5a35 28bd 79d3 35be
000003a0: f17f 9a3f 5265 e7bc b7ed 57bd 44fc 4bbd
000003b0: 69d3 d3ba 6221 1ebe 9e88 cb3e 1e4b 41be
000003c0: cc98 f23e 00f0 33be cb6b a8bd af8a eabd
000003d0: 58c5 f4bd dda5 98be 343b 92bd 198d 6bbd
000003e0: 38a0 07bd 9ca1 76bd 5aa7 3bbd ed7a e8bc
000003f0: 9022 9fbe da19 04bf d00c 82bc 4fc2 a13c

fc3.weight f4 [4, 256]
0.024728952 -1.2766719 0.008978062 -0.045394108 2.573099 0.00073026994 0.0665317 2.0737112
0.024647884 -0.043759227 2.5034943 0.020539142 0.0121783335 -0.58203006 1.4318799 2.1579406
-0.03611109 -0.2003944 -0.039813466 0.001820434 -0.5613206 0.029115459 -0.3149915 -1.4624499
0.014008146 -0.29510236 -0.0702458 -0.9859183 -0.037936147 -0.022984313 0.29102138 -0.042580128
-0.84553003 1.0970505 1.7853526 -0.59250313 1.257442 -0.52367216 0.010131568 1.3035138
0.543643 -0.8166094 -0.0064320415 0.724658 -1.3625238 -0.32759503 -0.43806326 -0.00053293555
-2.0154614 -0.5826882 -2.4351237 0.15545896 -0.11292236 -0.9254448 0.49628446 1.6265703
-1.7978176 -0.043008707 0.89671093 0.014320022 -1.2349396 0.017298369 -0.47161952 -1.0513493
-0.27122042 0.14786786 -0.48126185 1.0111344 -0.0084602935 0.022473617 -0.012162353 0.3317911
-0.03814079 -0.010807484 0.97922415 -1.1070467 -0.015942156 -0.6606034 -0.04355882 -0.26086414
-0.019699113 0.0030412327 -0.014459612 0.73147535 0.023526952 0.87233514 0.020931104 -0.017383488
-0.7611862 -0.8453728 -0.2735408 -1.1209055 0.019886138 -0.0024118838 0.6650495 -1.4168628
-0.02179857 -0.0016679326 0.069848366 -0.006537076 0.044638883 -0.03795504 0.0039972635 -0.097043626
0.00656815 -0.6178971 -0.49489343 0.0263551 -0.013720801 -1.459679 -0.02252388 0.04826435
-0.7484418 0.032511983 -0.043180477 -1.1155047 0.050282348 -0.030254684 0.016465727 0.013304882
-0.6207151 0.35471496 0.11874476 -0.59447575 0.0060610906 -0.4851481 0.0003805882 0.09311429
0.03132885 0.03492932 -0.091562 -0.007466011 1.6453313 1.2344921 -0.036482126 -0.42194435
-0.014920742 0.0174248 0.017676173 0.11207587 -0.04997026 0.0100878235 -0.019386012 -0.10768329
0.011027964 0.06732584 -0.008462558 -0.009826873 1.6152707 -1.2830888 1.1389265 0.11677152
0.45103866 0.099443436 0.013037539 0.026281523 -1.2141335 -0.08663601 -0.059161298 -1.4017997
-0.36303368 -1.300034 -0.015037884 -0.03194832 -1.1625258 0.010321667 -1.0589588 0.015765894
-0.11867107 0.0148795 -1.4623653 -0.05576408 0.005907224 1.3210622 1.6029243 -0.36493978
-1.1776521 0.037663117 1.1268458 -0.7665024 -1.9020852 -0.007807892 -0.7155459 -0.6638427
-0.04650208 -0.00826025 -0.01157659 -0.052736215 0.03207258 -0.059405547 1.8579316 0.17585517
0.07216772 0.0183358 0.048326965 0.04983575 -0.5034078 -0.01787703 0.7953586 -0.010219735
0.006527063 0.04486972 -0.023210438 -0.016938135 -0.6216682 0.06565105 -0.028999493 -0.014840829
-0.41297024 -0.558864 0.009384911 0.05325623 -0.05575376 0.08955852 0.00654822 -1.0519463
-0.47128755 -0.63581854 -0.07154876 -0.557967 -0.09414226 -0.031121578 -0.016163373 -0.49044743
-0.22631796 0.020687332 1.3020526 -0.032538347 0.07058542 0.03286567 0.007850824 -0.46793798
1.785491 0.030659994 -0.025729444 -0.036414064 0.013129689 0.009986988 -1.6375057 -1.7912008
-0.63339823 -2.3907335 0.08431384 0.039459843 -1.6011066 -1.5772566 0.015537466 0.015325409
-0.05409478 -0.05073618 -0.027654756 0.035888076 -0.025443284 0.9331846 -0.007492192 0.03402275
00000000: 5f94 ca3c fc69 a3bf b918 133c 2cef 39bd
00000010: a7ad 2440 966f 3f3a c641 883d afb7 0440
00000020: 5cea c93c e03c 33bd 4039 2040 b441 a83c
00000030: a287 473c ecff 14bf d747 b73f b31b 0a40
00000040: 39e9 13bd 3134 4dbe 7213 23bd a19b ee3a
00000050: b5b2 0fbf 8b83 ee3c 9146 a1be 8f31 bbbf
00000060: 6c82 653c a817 97be 08dd 8fbd 2465 7cbf
00000070: ef62 1bbd 9949 bcbc c100 953e 8068 2ebd
00000080: a874 58bf 276c 8c3f 6f86 e43f 49ae 17bf
00000090: dcf3 a03f 610f 06bf e0fe 253c 8ad9 a63f
000000a0: 302c 0b3f 500d 51bf e0c3 d2bb 3083 393f
000000b0: 2e67 aebf 89ba a7be d449 e0be b3b4 0bba
000000c0: 52fd 00c0 0e2b 15bf 11d9 1bc0 a230 1f3e
000000d0: d743 e7bd f3e9 6cbf ff18 fe3e 7533 d03f
000000e0: e31e e6bf e629 30bd d98e 653f 879e 6a3c
000000f0: 8012 9ebf 4fb5 8d3c 1d78 f1be 9d92 86bf
00000100: 67dd 8abe ac6a 173e f467 f6be da6c 813f
00000110: 0b9d 0abc 971a b83c 9b44 47bc 86e0 a93e
00000120: 8439 1cbd e011 31bc 6fae 7a3f b5b3 8dbf
00000130: 2099 82bc 4e1d 29bf bc6a 32bd fc8f 85be
00000140: 0960 a1bc 6b4f 473b 02e8 6cbc f841 3b3f
00000150: 98bb c03c 5b51 5f3f b577 ab3c d167 8ebc
00000160: 19dd 42bf 5a6a 58bf 8a0d 8cbe d579 8fbf
00000170: 41e8 a23c b210 1ebb af40 2a3f c35b b5bf
00000180: ea92 b2bc 889e daba a90c 8f3d f834 d6bb
00000190: 43d7 363d be76 1bbd 7afb 823b cfbe c6bd
000001a0: a339 d73b 812e 1ebf ac62 fdbe a7e6 d73c
000001b0: 36cd 60bc c3d6 babf 0084 b8bc d7b0 453d
000001c0: e299 3fbf 492b 053d 03de 30bd dcc8 8ebf
000001d0: ddf4 4d3d acd8 f7bc 22e3 863c b8fc 593c
000001e0: 2fe7 1ebf 339d b53e 7430 f33d 902f 18bf
000001f0: 1d9c c63b 5565 f8be af89 c739 b4b2 be3d
00000200: ae52 003d 0c12 0f3d dc84 bbbd 71a5 f4bb
00000210: 379a d23f d603 9e3f 486e 15bd 1709 d8be
00000220: 2176 74bc 74be 8e3c 9fcd 903c 0988 e53d
00000230: 9ead 4cbd 6647 253c 6acf 9ebc 0f89 dcbd
00000240: a2ae 343c 21e2 893d 8aa6 0abc e500 21bc
00000250: 31c1 ce3f 413c a4bf 58c8 913f e825 ef3d
00000260: 8aee e63e 00a9 cb3d 679b 553c 594c d73c
00000270: ba68 9bbf 386e b1bd 1e53 72bd 2c6e b3bf
00000280: 8ddf b9be 8467 a6bf 7561 76bc 3edc 02bd
00000290: a5cd 94bf 361c 293c f68b 87bf 7a27 813c
000002a0: d109 f3bd 25c9 733c c92e bbbf e068 64bd
000002b0: 6391 c13b 9118 a93f a02c cd3f 63d9 babe
000002c0: 4ebd 96bf a444 1a3d 7c3c 903f 8039 44bf
000002d0: 8777 f3bf 58d9 ffbb 042e 37bf 98f1 29bf
000002e0: f778 3ebd 0056 07bc bdab 3dbc ee01 58bd
000002f0: 8a5e 033d 3b53 73bd b4d0 ed3f 6113 343e
00000300: abcc 933d f634 963c 7ff2 453d 9220 4c3d
00000310: 55df 00bf d972 92bc 9f9c 4b3f ad70 27bc
00000320: f9e0 d53b 50c9 373d d123 bebc d8c1 8abc
00000330: a625 1fbf 0f74 863d 5890 edbc f326 73bc
00000340: d670 d3be b611 0fbf 2bc3 193c 3423 5a3d
00000350: 0e5e 64bd 756a b73d 7392 d63b 2da6 86bf
00000360: 9a4c f1be 01c5 22bf 2888 92bd edd6 0ebf
00000370: a8cd c0bd aef2 febc 0d69 84bc ed1b fbbe
00000380: e5bf 67be 7b78 a93c a9a9 a63f ee46 05bd
00000390: 178f 903d 279e 063d bea0 003c 9195 efbe
000003a0: f88a e43f ab2a fb3c 8ec6 d2bc ea26 15bd
000003b0: e81d 573c 77a0 233c c999 d1bf 1146 e5bf
000003c0: 6326 22bf c701 19c0 bcac ac3d a5a0 213d
000003d0: 10f1 ccbf 8be3 c9bf db90 7e3c 6d17 7b3c
000003e0: 7d92 5dbd bed0 4fbd 3a8c e2bc 60ff 123d
000003f0: 6f6e d0bc 30e5 6e3f 1081 f5bb 705b 0b3d

fc3.bias f4 [4]
0.39634052 0.123407744 0.65488404 0.29008523
00000000: 25ed ca3e 33bd fc3d 7ba6 273f 0d86 943e
