trained_models/lunar_lander_dqn_model_500.pth (torch, 278895 bytes, 6 tensors)

fc1.weight f4 [256, 8]
000000 07 53 b9 be 82 25 ba 3e 42 9e 45 be 42 fb 88 3e
       -0.36196157 0.3635674 -0.19298652 0.26754194
000010 29 8a 75 3e 0e 76 3d be a8 0e 93 3c 8b bd 3e 3e
       0.23978485 -0.18502066 0.017951325 0.18626992
000020 c1 9b b1 3f 43 92 ba be 16 c5 28 3f 3a a7 96 be
       1.3875657 -0.36439714 0.6592573 -0.2942446
000030 44 f4 79 be 6f b5 22 3d 2f f3 52 be c3 ae c5 be
       -0.24409586 0.03972381 -0.2060058 -0.38609895
000040 54 98 68 bf f5 98 9e bd b4 8b c8 bf e6 90 38 bd
       -0.90857434 -0.07744018 -1.5667634 -0.04506006
000050 bf 5b d2 be 99 4f 37 bf 65 b9 78 3e 36 ef 11 be
       -0.41085622 -0.7160583 0.24289472 -0.14251408
000060 e9 ce 64 3f 0b bc 1f c0 c3 45 44 3f e1 87 f6 be
       0.8937822 -2.4958522 0.7666895 -0.48150542
000070 7c 2b f6 3e e7 29 49 be bc 06 2c 3e d2 2f 37 3d
       0.4808005 -0.1964489 0.16799444 0.04472334
000080 fd 62 d0 3d 2f 38 a9 bf ee 8c 15 bf 2d a0 13 bf
       0.101751305 -1.3220271 -0.58418167 -0.57666284
000090 ec 53 29 be e7 3c a6 3d 8b 21 51 be 25 e5 c0 be
       -0.1653592 0.08117085 -0.20422952 -0.37674823
0000a0 04 f0 37 be 59 7f 30 bf a8 14 46 3f 06 e1 28 3e
       -0.17962652 -0.6894432 0.7737527 0.1649209
0000b0 c9 d3 ed 3d 4a b3 fa bc cb 07 1e bd dc cc db be
       0.116126604 -0.03060307 -0.03858165 -0.42929733
0000c0 6b 8d 18 3f 1d a0 06 be 5c 61 2e 3f 95 69 79 be
       0.59590787 -0.13147016 0.6811731 -0.24356683
0000d0 b7 e3 89 be 4d f7 12 3e 1d 5a 1c 3e dc c9 02 3f
       -0.26931545 0.1435215 0.1526875 0.5108926
0000e0 62 48 4f 3e 57 8e 34 be 32 6e d6 3d 92 9a 05 3f
       0.20242456 -0.17632423 0.10470237 0.5218898
0000f0 49 f3 6e 3f 7e 50 1c be e6 ae 8c 3e 51 62 7e 3e
       0.93339974 -0.1526508 0.27477187 0.24842192
000100 3f 63 a9 bf 54 41 e3 be 7e d1 2a 3e 67 60 c7 3e
       -1.3233413 -0.4438578 0.16681477 0.38940737
000110 6e a8 10 be d8 64 97 be 09 af 0c be 02 d9 ea 3c
       -0.14126751 -0.29569125 -0.13738646 0.02866793
000120 d2 80 41 3d 90 19 7c 3f 33 fe 6e bd 9d 5d 98 3e
       0.047241993 0.98476505 -0.058347892 0.2975892
000130 c7 0a 9c 3f 80 8c 34 bc b4 21 23 3e 35 52 a0 3c
       1.2190789 -0.011019826 0.15930825 0.01957045
000140 3f 23 83 be fc 36 bd be 14 63 aa be ce b6 47 be
       -0.25612828 -0.36956012 -0.33278716 -0.19503328
000150 2d 85 98 3e 52 8d 72 be a5 79 2d bf 7d de 49 be
       0.29789105 -0.23686722 -0.6776374 -0.19713779
000160 42 49 41 3e 46 00 91 bf 5d cf c5 3e 5e 15 ec 3e
       0.18875602 -1.1328208 0.38634768 0.46110052
000170 f3 b1 54 be f1 bf 1c bb 15 d0 f2 bd a2 97 2f be
       -0.20771007 -0.0023918117 -0.11856095 -0.17147687
000180 ce 87 eb 3e b4 d3 db bf 53 17 6d 3e f9 0d 3f 3e
       0.46002048 -1.7173982 0.23153429 0.18657674
000190 0d 44 03 bc cf f9 88 bc cf 92 dc be 6f 4f 03 3d
       -0.00801183 -0.01672068 -0.43080756 0.032058176
0001a0 dc 31 2b bf 21 a4 17 be 5d 4e 58 be 68 96 53 bd
       -0.66872954 -0.14808704 -0.21123643 -0.05165711
0001b0 05 bf 34 3e 06 e4 29 3f f7 0b 9b 3e 8c 7e 2d bf
       0.17650993 0.6636356 0.30282566 -0.6777122
0001c0 d6 fc 80 be 66 0a df bf a6 c3 d9 bf 40 d0 ba be
       -0.251929 -1.7425048 -1.7012832 -0.36487007
0001d0 39 22 3a be 15 35 61 be 4d 93 a4 3e 76 c8 ac be
       -0.18177117 -0.21992905 0.32143632 -0.3374669
0001e0 6e 07 90 3d 37 45 b4 3e a8 6e 4b be 6b 58 4f 3e
       0.07032667 0.35209057 -0.19866431 0.20248573
0001f0 79 c2 1c 3f 8a 64 75 be a0 77 1d 3e 13 c3 04 bd
       0.6123424 -0.23964134 0.15377665 -0.0324126
000200 de 3b 9b bd c0 1e 48 be 12 fa d0 3d 4f b6 6e bc
       -0.07579778 -0.1954298 0.10203947 -0.014569833
000210 cd 9a aa 3d d4 f3 9e be 3f 90 24 3e 79 5a 6f 3e
       0.08330307 -0.310454 0.1607065 0.23374356
000220 d2 ca ec bd 5a 05 c9 be 04 d0 35 be 62 fd 6d 3e
       -0.115621224 -0.39261895 -0.17755133 0.23241189
000230 c7 59 2c be 6e 33 c4 3d d5 a8 20 be 64 d5 f7 3d
       -0.16831122 0.09580122 -0.15689404 0.12101248
000240 46 0f 0c be ec 44 7e be f2 bc ca 3e c0 46 fe be
       -0.13677701 -0.24830979 0.3959728 -0.49663353
000250 fd 79 a5 3c f6 dd bc 3e b8 4f 0e 3f a9 6b fa be
       0.02019977 0.36888093 0.5559039 -0.48910263
000260 da e4 08 3e 50 7d a0 bf 05 d4 25 bf 0c 7d 37 3e
       0.1336855 -1.2538242 -0.6477664 0.17918795
000270 2f 2a 93 be 32 39 6a bd 7b fe 8a be aa e4 71 3e
       -0.2874312 -0.057183452 -0.27147278 0.23622385
000280 ad 2b 53 be f4 33 9a 3e 6e 81 a2 bf 22 cd 48 3e
       -0.2062213 0.30117762 -1.2695749 0.19609502
000290 08 c2 ee 3d af 44 05 bf 28 7a f8 3e 33 48 fc 3d
       0.11658102 -0.5205793 0.48530698 0.123184584
0002a0 fb 9c 16 be 63 f9 dd be bf ad 00 3f bf c6 a3 3d
       -0.14708321 -0.4335433 0.50265115 0.07996892
0002b0 58 57 47 bf 10 24 af 3e 9f d9 7b bd 00 9a 6c 3d
       -0.7786765 0.342072 -0.061486837 0.057764053
0002c0 17 2d d9 bd e7 84 ee bd 75 d2 84 3e 3f 94 ae be
       -0.10604303 -0.11646443 0.25941816 -0.34097478
0002d0 83 09 02 be df ae dc 3d 8e 23 8c 3d 49 4a ce bd
       -0.12698941 0.107755415 0.06842719 -0.100727625
0002e0 9c aa a1 3c db 6b 54 be 9a fa ac 3d d4 f4 4c 3e
       0.019734673 -0.20744269 0.08446236 0.2001527
0002f0 bb 44 95 3e ff a2 e1 bd 20 84 45 3e e8 13 26 be
       0.29154 -0.11017417 0.19288683 -0.16218531
000300 ac 2d 88 bd cd dc d0 3c e7 bf 3e bf 92 9c 4e 40
       -0.06649336 0.025495911 -0.7451157 3.2283063
000310 5a 36 8a 3b be 3d 9b 3c 48 66 73 be da d3 9f be
       0.004217905 0.01895034 -0.23769486 -0.31216317
000320 51 a5 2e bf e8 fd 03 c0 b0 61 8c bf 90 6b 7f be
       -0.68221 -2.0623722 -1.0967312 -0.24943376
000330 d2 8b 1e bf 2b b5 8b bd 00 74 3f 3d 39 3b 99 3e
       -0.619321 -0.068216644 0.046741486 0.29927996
000340 29 d0 a1 be 32 b4 8d be 17 14 4f be 6d f2 b6 be
       -0.31604126 -0.2767654 -0.20222507 -0.3573183
000350 d2 69 32 be cf af 83 3d 8b 31 c7 bb 0a 51 84 3d
       -0.1742318 0.06430017 -0.006078904 0.064607695
000360 45 a9 8d 3e 61 64 9f 3f 93 c9 de 3e a4 14 99 3f
       0.27668205 1.2452508 0.43513164 1.1959424
000370 51 8b 9a be dc b8 ec bb f1 fc 05 3e 44 f0 a8 be
       -0.30184415 -0.0072241854 0.1308477 -0.32995808
000380 6a c3 98 be 7b 94 8c 3e 36 d0 5d be 57 ca 92 3e
       -0.2983659 0.27457032 -0.21661457 0.28669998
000390 d6 e7 5e be de 82 1d bd 3d a0 bc be 06 08 62 3e
       -0.21768126 -0.038454883 -0.36841002 0.22073373
0003a0 0e c5 1e bf d1 ea 43 bf 58 40 e6 3e c0 6b 83 3d
       -0.6201943 -0.76530176 0.44970965 0.06417036
0003b0 03 b2 54 3e b4 e2 8d bd 06 30 aa bd 16 a6 a1 3d
       0.20771031 -0.06928006 -0.08309941 0.078930065
0003c0 d6 47 c9 3d 2a b5 9b bf d4 86 02 bf db 98 41 bf
       0.09828155 -1.2164662 -0.5098698 -0.75623864
0003d0 1f b5 55 bf 4b 02 c8 be 74 71 1e 3f 67 c8 01 be
       -0.83479494 -0.3906425 0.61891866 -0.12674104
0003e0 16 a8 05 bf f3 e0 7c bf be c7 e0 3e 4b 7d 44 3d
       -0.52209604 -0.98780745 0.4390239 0.04797105
0003f0 29 14 d0 be cb 1a 43 3f 4b 53 62 be 1e 3f 27 3f
       -0.4064038 0.7621276 -0.22102086 0.65330684

fc1.bias f4 [256]
000000 86 15 ca 3e 1a b5 e8 be 2e 77 73 bd b5 72 24 be
       0.39469546 -0.4545067 -0.05943983 -0.16059382
000010 19 7e 92 3e e4 51 78 3e dd b3 3a bf 7c a0 40 3e
       0.2861183 0.24249989 -0.729307 0.1881122
000020 dd a7 d2 3e 3f 77 cf be 7d a7 bd 3e f1 cd b4 3e
       0.41143695 -0.40520665 0.37041846 0.3531337
000030 87 c9 96 3e cb b8 27 be 5d 7f 41 3d 17 e1 c1 3e
       0.29450628 -0.16379087 0.047240604 0.37867042
000040 51 c1 a9 3d 99 16 4a 3e 15 a4 de bd 34 40 83 3e
       0.08288825 0.19735183 -0.1087114 0.2563492
000050 ab a3 00 be 33 0b 74 3e 82 f1 4d be 41 3b 66 3e
       -0.12562434 0.23832397 -0.20111659 0.22483541
000060 04 3b a3 bb c6 39 9e bd 5b 55 8f bc de bb f4 3d
       -0.0049814004 -0.07725863 -0.017496755 0.11949895
000070 99 45 e0 3e 5d 3a e3 3b 2a 05 a6 be 44 68 0b be
       0.438031 0.0069344477 -0.32425815 -0.13613993
000080 91 87 94 3e 31 83 90 3e c5 0d c4 3e 7e 08 39 bf
       0.2900968 0.2822509 0.38291755 -0.72278583
000090 cb 20 67 be e7 5b d6 3d b8 a4 a5 bd 4f fa 80 3e
       -0.22571103 0.10466748 -0.08088058 0.2519097
0000a0 e6 1c ac be 92 69 10 3e 98 b5 78 3d b9 25 14 3e
       -0.33615798 0.14102772 0.060720056 0.14467515
0000b0 ec 46 e6 3e 8d 7d af 3e 01 8c 52 3e 18 b3 c7 be
       0.44975984 0.34275475 0.2056122 -0.39003825
0000c0 59 88 a9 be 02 54 ea be da 98 13 3e ba 0c 0e 3f
       -0.33111838 -0.45767218 0.14413777 0.5548817
0000d0 e0 1e 8e bc ef 5e 19 be ec 6c 70 3d 73 d4 57 be
       -0.017348707 -0.1497762 0.058697626 -0.21077137
0000e0 aa 30 ce bd e4 53 98 bc a8 d9 8f bd 49 b3 09 3e
       -0.10067876 -0.01859469 -0.070239365 0.13447298
0000f0 ee 84 53 3d 5c 6d ed bd 31 48 da 3d 4f e6 47 be
       0.051640444 -0.11593124 0.10658301 -0.1952145
000100 df 63 21 3e 3a 1f 8f 3e 4f b0 6b 3d f1 69 5f bf
       0.15760754 0.2795351 0.057541188 -0.8727103
000110 73 90 37 bd 92 e9 21 3e 67 ad e1 3e 2c e6 39 3e
       -0.044815492 0.15811756 0.44077608 0.1815421
000120 b1 e0 0d be 77 98 d2 bd 33 50 a8 bd df e1 04 3d
       -0.13855244 -0.102829866 -0.08218422 0.03244197
000130 1f b5 c9 3e 9b 3b 1a bf 97 d8 17 be 3c 80 42 bf
       0.39395997 -0.602472 -0.14828716 -0.7597692
000140 74 7b 54 be 77 62 42 3e 1e dd 67 3e 73 76 02 3d
       -0.20750219 0.18982874 0.22642943 0.031851243
000150 9f 6c 9c be 61 3f 0b bf 8d a5 7a bf 4e d8 9c bd
       -0.3055162 -0.54393584 -0.9790886 -0.07658444
000160 20 82 88 be c0 23 69 3e d8 99 aa be 60 81 02 3e
       -0.26661777 0.22767544 -0.33320498 0.12744665
000170 6a 6f cd bd fd fc 14 bd 2f 8f bd 3d 4d 67 be 3e
       -0.10031016 -0.03637408 0.09255826 0.37188187
000180 39 32 91 be 04 c6 94 be 45 19 20 3e ad 0a 35 bd
       -0.2835863 -0.29057324 0.1563464 -0.044199634
000190 d5 e4 78 3d 29 db ad 3d 74 47 73 3e 17 87 d4 be
       0.060765106 0.08489067 0.23757726 -0.41509315
0001a0 20 4b c8 bd 91 88 89 3e 31 07 03 3e 5a d4 00 bd
       -0.09779954 0.26862004 0.12795712 -0.031452514
0001b0 c6 9e a2 3b 57 e9 96 3c bd 3d 8b be 90 72 01 bf
       0.004962775 0.018421812 -0.2719554 -0.50565434
0001c0 e6 86 12 3f ac 38 3a bf 66 d7 15 be cc ad 39 bf
       0.5723709 -0.72742724 -0.14632949 -0.7253082
0001d0 0d 38 a2 3e 4f e5 32 be 4b 4e 64 3c 17 97 a3 3e
       0.31683388 -0.17470287 0.013934682 0.3195121
0001e0 23 3a b3 be c6 78 b1 3d ce 16 2e be 7c ec fb 3c
       -0.35005292 0.08665614 -0.17000887 0.030752413
0001f0 a1 f9 00 ba fd 9d 51 3e ea a1 10 3f 89 1b 6d bf
       -0.000492001 0.20470424 0.5649706 -0.9262014
000200 75 b4 24 be 97 c7 5b 3e dd 32 48 3e 34 ad 30 be
       -0.16084464 0.21462856 0.19550653 -0.17253572
000210 67 ef 0b 3e 38 1c a3 3d 2a de 0f be 79 f2 23 3e
       0.13665543 0.07964367 -0.14049593 0.16010465
000220 bd e6 9e be 23 4e d9 3d 1d 80 55 be 3f af 08 be
       -0.31035414 0.106106065 -0.20849653 -0.13348101
000230 17 03 9e be 4b a3 33 bd c9 5e e8 be b1 5a 07 3f
       -0.30861732 -0.0438569 -0.45384815 0.5287276
000240 4b 5e e8 3e 52 8e 7c bc d5 1c 89 3e 36 6d f7 bd
       0.4538444 -0.015414791 0.2677981 -0.12081377
000250 99 84 c2 be d5 b9 09 bb aa 69 0e bd 84 16 87 3e
       -0.3799179 -0.0021015306 -0.034768738 0.26384366
000260 ea 43 95 3e 7c b7 ac 3e bd 1e 8c bd 0b 35 81 bc
       0.29153377 0.33733737 -0.068418 -0.015772363
000270 c1 c6 55 3e 9f d1 c6 be 4e a3 58 3e 1f 31 cd be
       0.208766 -0.38831803 0.21156046 -0.4007654
000280 91 8d 17 3e 6a 50 97 bc cd 61 b0 3e 2a 56 9b be
       0.14800097 -0.018470962 0.34449616 -0.30339175
000290 7c 6b d5 be 6f b1 c0 3e 4e a8 90 3e a2 08 1a 3e
       -0.41683567 0.3763537 0.28253406 0.15042356
0002a0 f1 80 af be bc 64 a4 3d b4 5f b2 3e a3 b8 61 3e
       -0.34278062 0.08027026 0.3483864 0.2204309
0002b0 b4 40 ac bc a3 a8 8d 3e a3 21 d2 3d 44 34 54 3e
       -0.021026947 0.27667722 0.10260322 0.20723063
0002c0 05 c4 94 bc 24 6a 9b bd e3 e2 e7 3e 7e f0 cd 3d
       -0.018159876 -0.07588604 0.45290288 0.10055636
0002d0 2e c0 e2 3e fd 56 9a 3e 38 76 95 be 05 d3 32 3e
       0.44287246 0.30144492 -0.29191756 0.1746331
0002e0 d1 56 77 3e 74 5e 8c 3e 24 e7 76 be 71 47 de bc
       0.24154212 0.27415812 -0.2411161 -0.027133675
0002f0 4e 6c 9e be de 7c 37 bf 52 99 cb bd 63 62 7e bd
       -0.30942005 -0.7167491 -0.09941353 -0.062105548
000300 2a 75 85 3e 81 c5 64 3e 04 bb 58 3d c9 82 67 3e
       0.26065952 0.22340967 0.052912727 0.22608484
000310 0b b7 de 3e 7a eb b7 bd ff 31 9d be 09 fe a3 3e
       0.43499026 -0.089804605 -0.30702206 0.3202975
000320 de dc 8e bd 99 cb 85 be 58 4b f2 3d 09 e6 4a be
       -0.06975721 -0.26131895 0.11830777 -0.19814314
000330 10 65 8f bd b8 b3 13 3e 0f 20 cc 3e 76 ab bf be
       -0.07001698 0.14424026 0.3986821 -0.37435502
000340 e7 7c 33 3e 33 2e 00 3d 5d 72 3a 3d d2 dc 08 3f
       0.17528115 0.03129406 0.04551922 0.53461945
000350 86 34 a2 bd 09 6b b5 be b6 a7 cf be 11 0e 12 be
       -0.07920174 -0.35433224 -0.4055764 -0.14263178
000360 ea f7 10 be 05 3d 37 3e 76 53 dd bd c7 a2 50 be
       -0.14157072 0.17894371 -0.108069345 -0.20374595
000370 e9 6b 07 3e 15 14 a4 bd eb e0 3f 3d ed f4 32 bf
       0.13224758 -0.08011643 0.046845358 -0.6990498
000380 d3 af 72 be 59 b6 71 3e e8 1e 6c bf 85 80 c6 bc
       -0.23699884 0.23604716 -0.9223466 -0.024231205
000390 75 d0 83 3e 11 9c 60 3e 0a 83 6e 3e fc 74 c4 3c
       0.25744978 0.21934535 0.23292175 0.023981564
0003a0 9b 3d 89 3e eb 50 3a bd 6f 33 b2 3e bd f0 72 3e
       0.26804814 -0.045487326 0.34804866 0.23724647
0003b0 78 e5 0c 3e 28 c0 84 3e e0 5a 68 3e d2 2e 1d be
       0.1375941 0.25927854 0.22690916 -0.15349892
0003c0 68 50 10 3c 4b c4 51 bf d4 17 4b 3d 20 c2 e7 3d
       0.008808233 -0.81940144 0.04958327 0.11316323
0003d0 f2 94 be 3a 7a 55 c0 be bb 8d 2a 3e c9 e8 d5 3d
       0.0014540239 -0.37565213 0.16655628 0.10444791
0003e0 a0 67 d7 bd 04 ab 84 3e 8d 0f d6 be 05 d1 ac 3d
       -0.10517812 0.25911725 -0.4180874 0.08438305
0003f0 ca 71 33 be 44 7b 6c 3e 85 59 1f 3e 87 b9 86 be
       -0.17523876 0.23093897 0.15561493 -0.2631342

fc2.weight f4 [256, 256]
000000 5d 49 8e bd 2c 43 34 3d 40 d4 8b bb b8 6c b1 3c
       -0.06947587 0.044009373 -0.0042672455 0.021658286
000010 30 f2 d8 bc 0f 81 0b 3d 58 38 76 bc 22 5f 92 bc
       -0.026482671 0.034058627 -0.015028082 -0.017867628
000020 c0 61 59 3c 87 5e c1 bc b0 a2 3b bd 64 1e 9d bd
       0.013267934 -0.023604644 -0.045809448 -0.07671812
000030 64 0f 97 bc 28 c0 33 3c 00 22 0f bd 11 4f 10 3d
       -0.018439956 0.010971107 -0.034944534 0.035231654
000040 00 07 97 39 8c b5 80 bc 44 e5 f5 bc d0 46 3e 3c
       0.0002880618 -0.015711568 -0.030016549 0.011613563
000050 5d d0 1f bd a7 ba 44 bd a4 62 b5 bc 32 06 82 bc
       -0.03901707 -0.048029568 -0.022141762 -0.015872095
000060 6d d5 a6 bd 52 2a 15 3d 88 af 57 bc 68 1b 89 3c
       -0.081461765 0.036417313 -0.0131644085 0.016736701
000070 3b d3 49 bd c4 ff 58 bd 11 0a 9e 3c 0d 17 a3 bd
       -0.04927371 -0.052978292 0.01929191 -0.07963381
000080 a6 7a 25 bd 6a 51 5b 3c 90 59 22 bd 88 b6 2b bc
       -0.04040017 0.01338611 -0.039636195 -0.010480531
000090 7a bd 1d 3d 60 02 af 3b 55 86 1f bd ae 91 8e 3c
       0.038510777 0.0053408593 -0.03894647 0.01740345
0000a0 95 b0 1c bd fa 8a 41 bd d2 f6 03 bd 80 83 e3 3a
       -0.03825434 -0.04725168 -0.032217808 0.0017357916
0000b0 28 f9 65 bd 90 6a 00 bd 65 45 c6 bc e8 28 f5 bc
       -0.056145817 -0.031351626 -0.024203012 -0.029926732
0000c0 c0 2d 3b bc c5 44 81 bd 38 bd 91 3c 58 19 a5 3c
       -0.011424482 -0.06311945 0.017790422 0.020153686
0000d0 de ae 5e 3d a9 62 14 3d cb df 22 bd 9a 3b 6b bd
       0.054365985 0.036226902 -0.039764207 -0.057429887
0000e0 b8 f0 30 bc 65 a8 85 bb 98 92 2b 3d b1 82 7c bb
       -0.010799579 -0.004078912 0.04188785 -0.0038530047
0000f0 1c 88 84 3c b0 af 6b 3c aa c2 3d bd 04 4f d7 bc
       0.016178183 0.014385149 -0.046328224 -0.026282795
000100 f2 50 3b 3d 40 d5 ff bc 0f 3a 68 3c 61 c3 98 bd
       0.045731492 -0.031229615 0.0141739985 -0.074591406
000110 ac d8 78 bd 1c e7 a3 bd 84 49 83 bd 04 ee 57 3d
       -0.06075351 -0.08003065 -0.06410506 0.052717224
000120 2d d5 86 bd 86 69 58 bd 7c 5b 69 3d c2 d4 64 3d
       -0.06583629 -0.05283501 0.056972012 0.055866964
000130 28 4e d3 bc 04 d0 47 3d 7a d2 40 bd 52 f4 78 3d
       -0.025794104 0.048782364 -0.047075726 0.060779877
000140 bc f3 51 bd 28 42 16 3d 58 fc 73 3d 05 0b 7c 3b
       -0.051257834 0.036684185 0.059566826 0.0038458717
000150 00 93 e4 3b 20 19 5c bb 5e 4d ac bd 16 0a 4c bd
       0.0069755316 -0.0033584312 -0.08413194 -0.049814306
000160 6c 27 4b bd d2 2d a5 bc 70 fb 29 3c 88 ec 0e 3d
       -0.049598143 -0.02016345 0.010374889 0.034893543
000170 cc 9d 19 3d c0 b6 e3 bc b2 02 be bc bf d6 87 bd
       0.037504002 -0.027797103 -0.023194645 -0.066327564
000180 68 79 49 3c 04 1d 8f 3c 68 8c ec 3c 04 71 50 bd
       0.012297012 0.01746989 0.028875545 -0.05088903
000190 98 cf ae bd 60 1b 4a 3d d0 30 85 bc 10 9a 86 bb
       -0.08535689 0.049342513 -0.016258627 -0.004107721
0001a0 00 d2 22 b9 9d 94 c8 bc 0f bd b0 bd b0 dd 2d bd
       -0.00015527755 -0.024484927 -0.0862981 -0.042447746
0001b0 b6 a1 2e bd d0 a7 3c bd 74 be b4 bc dc eb 22 3d
       -0.04263469 -0.046058476 -0.022063471 0.039775714
0001c0 e4 be 05 3d e8 85 75 bc 60 33 75 3c cc c3 bd bc
       0.03265275 -0.014985539 0.014965862 -0.023164652
0001d0 e4 4b e3 bc 19 a2 e6 3c 74 c3 29 bc 20 55 cc bb
       -0.027746148 0.028153466 -0.010361541 -0.0062357336
0001e0 52 69 40 3d f0 2b 9c 3b ac 68 f0 3c 02 bc 16 3c
       0.04697544 0.00476598 0.029346786 0.009200098
0001f0 8b 12 a6 3c ae 9b 08 bd 7b 93 76 ba 84 70 ea bc
       0.020272514 -0.033351593 -0.00094061316 -0.028618105
000200 d2 11 7a 3d 3c 8c c1 3c 4b 7c 43 bd 88 e0 35 3c
       0.06105215 0.02362644 -0.047725957 0.011100896
000210 d4 6d 69 3d 70 a5 b7 3c 08 06 c3 3c 6b 20 98 bd
       0.056989506 0.022417754 0.023806587 -0.07428058
000220 7e 64 a6 bd b3 48 a3 bd 2a 83 1b 3d ed b7 ec 3b
       -0.08124636 -0.07972851 0.037966885 0.007224074
000230 78 0e 03 3d eb 67 a5 bd 3e 8d eb 3b ea 8e 80 bd
       0.03199622 -0.080764614 0.0071884682 -0.06277259
000240 d8 d4 af 3c 98 21 09 bd 31 13 36 3c 3a 31 67 bd
       0.021463796 -0.033479303 0.011112974 -0.05644343
000250 8b fe 0b ba ac 72 4b bd 3c 91 46 bd 0d 9c 24 3c
       -0.0005340359 -0.049669906 -0.04847835 0.010046971
000260 6c 65 e5 3c f4 31 0a 3d 01 d6 8b bc a0 66 15 bc
       0.028002463 0.033739045 -0.017069818 -0.009118706
000270 d3 bd f9 bc 48 2d 0c 3d 84 73 d2 3c 80 7f 15 bb
       -0.030486023 0.03422287 0.025689848 -0.0022811592
000280 e0 41 60 3b e8 17 7b bd 2d d2 30 bd ed 4e c9 bc
       0.0034218952 -0.061302096 -0.04316919 -0.024573768
000290 a8 61 54 bd cf ba e6 bc e0 ae 2c 3d a0 a8 a1 ba
       -0.051850945 -0.02816525 0.04215896 -0.0012333579
0002a0 fc 42 f3 3c 00 cc fe b9 d6 01 b7 3c 94 88 97 bd
       0.029695027 -0.00048598647 0.022339743 -0.07399097
0002b0 40 56 a0 3a 80 d2 c3 bb 47 66 49 bd a8 10 65 3c
       0.0012232736 -0.0059760213 -0.049169805 0.013981022
0002c0 e8 ae 07 bc dd e1 7a bd 30 40 7e bd 68 72 07 bc
       -0.008281447 -0.061250556 -0.062072933 -0.008267023
0002d0 a4 6c 2d 3d d7 8e 90 3c 7c 8e 76 bd eb ab 90 bd
       0.042339936 0.017646236 -0.060194477 -0.07064041
0002e0 58 23 12 3d 98 60 aa 3c da 3f 79 bd de a1 16 bd
       0.035678238 0.020798013 -0.06085191 -0.036775462
0002f0 7f 8b 84 3c d0 6b f5 bb f0 bd bd bc 60 6c 45 3b
       0.016179798 -0.007489659 -0.023161858 0.003012441
000300 a4 ec d3 3c 5c e6 29 bd d0 1c 17 bd c1 66 1f bc
       0.025869675 -0.041479453 -0.036892712 -0.009729088
000310 f7 ac 8e 3c b1 05 92 bd f6 e3 6a bd 18 6e 13 bd
       0.01741646 -0.07129992 -0.057346307 -0.035993665
000320 89 2f e9 3a 1a 8a 4a bd 20 73 da 3b 60 9f db bb
       0.0017790656 -0.04944811 0.006666556 -0.0067023486
000330 48 c7 60 bd fd 21 79 3c 00 33 8e 3b b6 bb 46 bd
       -0.05487755 0.015205857 0.004339576 -0.04851886
000340 f0 a8 38 bc 14 45 57 bd 2c 12 b4 3c b1 99 80 bc
       -0.011270747 -0.052556112 0.021981321 -0.015698286
000350 50 41 ae 3b eb 26 1d 3c 6c 83 9e 3c b4 04 f7 3c
       0.0053178445 0.009591798 0.019349776 0.03015361
000360 00 a0 c2 38 72 95 46 bd 80 c3 6e 3d d9 b8 d7 3b
       9.280443e-05 -0.048482366 0.058291912 0.006583315
000370 90 85 bc bc 53 f9 90 bb 3e b8 0e 3d f0 27 47 bd
       -0.023012906 -0.004424253 0.034843676 -0.04862207
000380 f0 89 db 3c 26 27 91 bd 34 ce 59 bd e6 9d 23 bd
       0.026799172 -0.07087545 -0.053175166 -0.039945506
000390 b0 22 15 bd e6 20 aa bd 86 ee 75 bd 0a b6 4d bd
       -0.036410034 -0.08307056 -0.060041927 -0.050222434
0003a0 ba 21 35 ba 1a 9c 76 3d ff 35 80 bd 6a a0 9a 3b
       -0.00069096277 0.060207464 -0.06260299 0.00471883
0003b0 fe 79 10 3d b2 a9 86 bd 98 4e 64 bd 8e a4 45 bd
       0.03527259 -0.065753356 -0.055739015 -0.048252635
0003c0 45 ae 17 3d 4c c4 0b 3d 9c 46 08 3d 9d 72 02 bc
       0.03703143 0.03412275 0.033270463 -0.007961896
0003d0 c0 45 d1 3c 90 a1 95 bb 88 c7 26 bd 1e 57 1f 3d
       0.025545955 -0.004566379 -0.04071763 0.03890144
0003e0 30 66 9d bc f0 82 82 bd c8 d1 a1 bc af 11 a4 3c
       -0.019213766 -0.063726306 -0.019753352 0.020027963
0003f0 f8 6d 38 bd 0a 31 1f bd 82 02 95 bd 8c 58 6d bd
       -0.04502675 -0.038865127 -0.07275869 -0.057945773

fc2.bias f4 [256]
000000 5b cf 08 ba fb 3b de 3d b5 08 85 3e aa b1 1e 3c
       -0.00052188867 0.10851284 0.25983205 0.009685913
000010 74 47 07 bd e3 f5 1a bd ab 6a c2 bd d0 38 2c bd
       -0.033027127 -0.037832152 -0.094930016 -0.042046368
000020 7e 11 91 bb 9c fa 31 3c a9 82 9f bc 12 8a b6 3d
       -0.004427134 0.010862973 -0.019471483 0.089130536
000030 2b f4 4a bc 32 8a d6 3d 22 02 62 3d ba 46 e1 bc
       -0.012387316 0.104755774 0.055177815 -0.027499545
000040 6a ee b3 bd 27 8f 52 3e af 61 e8 3b a7 d8 02 bd
       -0.08785708 0.20562421 0.007091723 -0.031944897
000050 93 74 ff 3b a1 95 d7 bc 05 59 33 be 65 36 99 3d
       0.007795879 -0.026316466 -0.17514427 0.07481078
000060 8b 56 8b bd 9c 08 ae 3a 1a db 3f 3e ce 56 4d 3c
       -0.06803616 0.0013277712 0.18735924 0.012532903
000070 24 45 55 bd 85 d8 e2 bc 1a 8e 35 3e c5 a9 8d bd
       -0.05206789 -0.027691135 0.17729989 -0.069171466
000080 f3 cb 0e 3d de 52 51 bd 2b 41 86 3e d7 e0 8f bd
       0.03486247 -0.05110442 0.26221594 -0.07025307
000090 d0 69 d5 bd 52 09 e9 bc 2e 12 76 3f fd 63 ab bd
       -0.10420573 -0.028446827 0.9612149 -0.083686806
0000a0 e8 50 cc bb 05 bc 33 3c 5a 83 d9 3b d8 63 9a 3d
       -0.0062352307 0.01097012 0.006637973 0.07538575
0000b0 f1 db 40 bd e5 b2 01 bd 40 92 81 3c 39 1b 26 3e
       -0.047084752 -0.031664748 0.015816808 0.16221322
0000c0 27 1b 1c bc b3 6e 39 3d 6e 23 06 be a4 55 56 bd
       -0.009527958 0.045271587 -0.13099453 -0.052327767
0000d0 4a 0e 1f 3e c3 f2 95 bd bd fb a8 bc 51 c2 b2 bd
       0.15532795 -0.07321694 -0.02062785 -0.08728469
0000e0 ee 18 a5 3c 0a 58 4a 3d b3 57 10 bd 9d 9a 43 3c
       0.020153489 0.049400367 -0.035239886 0.011938718
0000f0 13 f1 ab be 47 a9 09 3e 02 8d f2 bc ff af b3 3e
       -0.33582363 0.1344348 -0.029608253 0.35095212
000100 5e 8b a0 bd 1f 19 2c 3d 1b 71 ac bc f9 d0 ca 3c
       -0.07839082 0.042016145 -0.021050027 0.024757849
000110 1a d0 16 be 69 98 51 bd eb 1c 03 be f1 51 9b 3e
       -0.14727822 -0.05117074 -0.12804 0.30335954
000120 2f f1 8c bc ad ab 58 bd cf 3c 82 bd d5 5f 1c 3d
       -0.017204849 -0.052898098 -0.063592546 0.03817733
000130 c7 c4 3f bd 30 49 42 bc d5 a3 17 3d 9a 58 c3 3d
       -0.04681852 -0.01185827 0.037021477 0.09538384
000140 28 d7 22 bc 6c 3b 30 3b 59 b1 a6 3d 71 e2 94 3e
       -0.009938993 0.0026890887 0.08139295 0.2907901
000150 60 a8 88 bd 42 c4 6a 3e ea d6 80 bd 0f c5 61 bd
       -0.0667274 0.22926429 -0.062909916 -0.05511957
000160 ed 43 73 3d bc 0d 07 bd 7c 94 0f bd f0 7b a3 bd
       0.05939095 -0.032972082 -0.035053715 -0.079826236
000170 6e 98 ca bd db 51 46 3e a4 92 dc bd 0d a4 1e 3e
       -0.09892355 0.19367163 -0.10770157 0.15492268
000180 0f de 3e bd 4c a9 4c bd cf cd a1 bd d1 34 92 3c
       -0.04659849 -0.04996614 -0.07900583 0.01784745
000190 2e 40 25 bd 24 99 18 bd 12 72 05 3e 3e 5c fe 3d
       -0.04034441 -0.03725542 0.13031796 0.124199376
0001a0 76 33 44 3d 32 10 ee 3c 64 26 4e 3d e4 2e 1f 3e
       0.04790064 0.029060457 0.05032958 0.15545231
0001b0 7c 76 3e bd 89 f0 8d bd b9 01 a8 be 73 73 80 bd
       -0.046499714 -0.06930644 -0.32813814 -0.0627202
0001c0 81 9c 93 3d 30 1c 2f bd 78 75 48 bc d6 81 c3 3c
       0.07207585 -0.04275149 -0.012235038 0.023865622
0001d0 38 ee 87 bd b8 04 a2 bd 90 5e 7a bd 7a 00 2b bd
       -0.066372335 -0.07911056 -0.061125338 -0.0417485
0001e0 d1 92 60 be 12 58 27 3d d5 b2 ed bc d1 8b 71 3e
       -0.21931006 0.040855475 -0.029015938 0.23588492
0001f0 f3 29 4c bd 6c 85 2a 3c f4 3d f1 3d 38 ad 5a bd
       -0.049844693 0.010407787 0.11779395 -0.05338785
000200 1d 85 b3 bd eb 80 0c 3d 52 9a 7b bd 59 12 cd bd
       -0.08765624 0.034302633 -0.06142647 -0.10013265
000210 46 5b 7f 3d 6c 2d 05 be ff 2a 91 bd 53 8a 93 bd
       0.062342905 -0.13005608 -0.07088279 -0.072041176
000220 3c a5 86 bd 2c 66 a2 bc 43 bc 11 bd 90 a7 a4 3b
       -0.06574485 -0.01982411 -0.03557993 0.005024858
000230 df b9 3a bc 4f 6f 20 bd 86 25 b8 bb 69 24 7c 3b
       -0.011396854 -0.039168652 -0.0056197075 0.003847385
000240 91 99 7d bd 8d 93 eb 3d 4d 7f 88 3e dd a4 1c bd
       -0.06191403 0.115027525 0.26659623 -0.038243163
000250 32 5f 51 bd 02 3f 8e bd da 6e 61 3e 52 17 69 3d
       -0.051116176 -0.069456115 0.22014943 0.056907006
000260 ec 1d bc bd d5 6a 34 bd 62 5b 09 be 24 0b 29 3d
       -0.09185395 -0.044047195 -0.13413766 0.04127039
000270 7f 32 b0 3d 74 a6 95 3d 4b bc 96 3c 94 71 cb bd
       0.08603381 0.07307139 0.018400332 -0.09933773
000280 03 b5 da 3d 7f 6a 83 bd be 1a fd be 57 00 36 bd
       0.106790565 -0.06416797 -0.49434465 -0.044433918
000290 b6 e8 dd 3d f9 f7 bc 3d 51 08 28 3b 1b a7 71 3d
       0.10835402 0.092269845 0.0025639723 0.058997255
0002a0 15 f7 07 bc 60 40 d6 bd 80 30 d8 bb 52 9d 5a 3e
       -0.008298655 -0.10461497 -0.0065975785 0.21349075
0002b0 93 44 05 bd 44 3c 44 3d a6 ac 91 bd 70 f7 a8 3d
       -0.0325361 0.047909036 -0.07113008 0.0825032
0002c0 ed 4e 96 bd 95 e0 db 3d 75 d5 22 bd 59 14 30 bc
       -0.07339273 0.10736195 -0.03975435 -0.010747039
0002d0 52 c3 ff bc c3 89 51 3d 9e 75 1b bd 93 ff 8f bd
       -0.031221066 0.05115677 -0.037953965 -0.07031169
0002e0 45 fd 85 bc 93 12 13 bc cd 39 68 bc 88 40 9b 3c
       -0.01635612 -0.008976596 -0.014173937 0.01895167
0002f0 39 58 3d bc f0 63 d1 3d 92 4a 3a bd 6f e8 b5 bc
       -0.011556678 0.1022414 -0.045481272 -0.02220556
000300 af 65 37 bd c8 57 d4 3a 49 27 c1 be a4 09 d4 3e
       -0.044774707 0.0016200477 -0.37725285 0.41413605
000310 34 e4 ba 3c d8 7e b5 3d 72 4b 24 bd a6 af 6d bd
       0.022813894 0.08862084 -0.040111013 -0.05802884
000320 97 51 88 bd 91 01 bb 3e 31 6f 15 bd c0 5e 96 3c
       -0.06656187 0.36524633 -0.036482994 0.018355727
000330 8e 02 33 bd f4 07 9a 3e 54 d7 a9 3d 27 57 5f bd
       -0.04370361 0.30084193 0.08293024 -0.054526474
000340 ab 27 62 bc 80 90 d6 3b 9b 48 db bc aa 3a b1 3c
       -0.013803403 0.0065479875 -0.02676802 0.021634419
000350 68 f8 10 bd 2c 53 1d 3d e4 22 8e 3c ae b9 d0 3c
       -0.03539315 0.038409397 0.017350622 0.025479164
000360 7d bc 03 3d d0 16 94 bd 7f c4 62 bc 5f 9d cf 3c
       0.03216218 -0.07230914 -0.013840794 0.025343595
000370 34 90 e3 bc fb 0b 0b 3e 4a e6 d1 3d 52 55 d7 3d
       -0.027778722 0.13578789 0.10249002 0.105143204
000380 55 aa 03 3d 52 ac e3 bc 84 46 97 bd ae 55 dd 3e
       0.032144863 -0.02779213 -0.07386497 0.4322943
000390 3e b1 83 bd ee ee a9 bd f7 f9 a4 3e a1 59 3e 3d
       -0.06430291 -0.08297525 0.32221958 0.046472196
0003a0 66 9c 2c bc 67 7d 74 3d 6c ff 79 bd b1 18 78 3d
       -0.010535335 0.059689905 -0.061034605 0.060570423
0003b0 04 92 b6 3c eb 48 8a bc f8 79 14 bd eb da 9c bc
       0.022286423 -0.016880473 -0.03624913 -0.019147357
0003c0 d8 2b 1f 3e fe f2 cc bd 49 cb c9 3c f6 e4 93 bd
       0.15544069 -0.100072846 0.024633067 -0.07221405
0003d0 8a 57 1a 3d 58 f7 8b bd 44 04 84 3d 3c 6a e7 3e
       0.03768114 -0.068342865 0.06446126 0.45198238
0003e0 dc e1 dc bd 54 c7 4f 3b 8d b8 6f 3c ea e8 27 3c
       -0.10785267 0.0031704502 0.014631403 0.010248402
0003f0 6b 49 d4 bc 88 6a 7a bc 89 d2 21 3c 73 35 f5 3c
       -0.025913915 -0.015284188 0.009876856 0.029932713

fc3.weight f4 [4, 256]
000000 32 4c 27 bd ce 8b 21 bf 5f a8 bc 3e da a3 3c 3d
       -0.04084415 -0.6310395 0.36847207 0.0460547
000010 00 bd 54 bd 55 d7 40 bc dc 72 c6 39 ac 40 83 bc
       -0.051938057 -0.011770089 0.0003785108 -0.016022049
000020 5b 1a 4d be 3c 1a 63 3c d8 c5 bc 3b 5e 6f 39 be
       -0.20029585 0.013861235 0.0057608895 -0.1810889
000030 01 e6 0e be 69 bc 57 be 55 31 02 3f ea 0e 4c be
       -0.13954927 -0.21067967 0.50856525 -0.19927564
000040 9c 64 88 bc a6 38 89 bf 47 56 d5 3c e7 33 59 bc
       -0.016649537 -1.0720413 0.026042117 -0.013257003
000050 41 91 61 be 4b 97 22 3c 0a 81 13 bd 4d f1 53 be
       -0.22028066 0.009923766 -0.036011733 -0.20697518
000060 fe b0 9a 3d bf fa a1 bb 47 75 0e 3f 32 99 38 be
       0.0755329 -0.0049432213 0.556477 -0.1802719
000070 c8 18 3c bc b6 b5 3a 3d dd 86 35 bf b9 c0 b5 be
       -0.011480518 0.04558345 -0.7090891 -0.35498598
000080 dc 52 28 be 7b 61 a0 be 99 31 a1 3e 14 f0 27 3d
       -0.16437858 -0.31324372 0.31483153 0.04100044
000090 90 c5 26 bb ae aa be be f5 05 ac 3f 8f db 3d bd
       -0.0025447346 -0.37239593 1.3439318 -0.046351966
0000a0 e2 3e 6d 3c 05 b4 2a bd 35 bc f5 ba 27 ba 56 be
       0.014480324 -0.041675586 -0.0018748107 -0.20969449
0000b0 75 94 e1 3c 94 41 5b bc 21 07 32 3d 18 3c c6 be
       0.02753661 -0.013382334 0.04346383 -0.38717723
0000c0 83 80 55 bd 3e 9c 74 be b3 c5 42 bd 5a 68 a7 bc
       -0.05212451 -0.23887727 -0.047551822 -0.0204355
0000d0 2e e7 f5 be b4 b5 cb bc 9a 03 04 3d 8f 15 a2 bc
       -0.4802794 -0.024866916 0.032229997 -0.01978567
0000e0 6c 54 d8 3c a4 0e c2 bb a1 a2 48 3c 53 43 06 be
       0.026407443 -0.0059221555 0.012245805 -0.1311162
0000f0 01 b7 3a 3f a0 1f 6b be 71 3e 94 bd 7c 90 bc be
       0.7293549 -0.22961283 -0.07238472 -0.36828983
000100 70 a8 88 3c c2 ad 07 bc 00 2f 6d bd 41 5e 6b bc
       0.01668188 -0.008281173 -0.05790615 -0.014365734
000110 45 8e 74 bc f9 a1 77 3c c9 9b 12 bf b7 66 a7 be
       -0.014926498 0.015114301 -0.5726896 -0.32695553
000120 29 17 1d be c4 98 b4 3c 3f 42 de 3b a5 38 35 be
       -0.15340866 0.0220455 0.0067827995 -0.1769739
000130 83 a8 65 bc 75 c6 11 bd 3d 64 c6 3b 25 0e 84 be
       -0.014017227 -0.035589654 0.00605443 -0.2579204
000140 d0 57 78 3b e3 bd 69 3e d7 6e 36 be cb 92 5e bf
       0.0037894137 0.22826342 -0.1781572 -0.8694274
000150 e4 90 45 3d 0d 8f ec be 98 94 52 bd f4 c9 17 bc
       0.04823388 -0.4620289 -0.05141124 -0.009264458
000160 a4 ae 3c be 1c 78 f3 3c 69 fa 25 3d 7d dc 6c bd
       -0.18425995 0.029720359 0.040522013 -0.05782746
000170 a4 f0 38 bf 7a d2 06 3e 8a 44 c8 3e 6d 73 e7 be
       -0.7224219 0.13166228 0.3911479 -0.4520525
000180 60 53 61 bd 35 22 7e bd 40 78 74 3c c7 ec 18 3d
       -0.055011153 -0.06204434 0.014921248 0.037335183
000190 8f 48 0b bd f1 d2 19 be 16 d6 53 be a0 d9 3c bf
       -0.034004744 -0.15021874 -0.20687136 -0.7376957
0001a0 48 0a 37 3d 95 06 52 be 65 1f 1f be 65 5b ed be
       0.04468754 -0.20510323 -0.1553932 -0.4635879
0001b0 85 62 17 bd e5 0d bf 3b 73 1a 87 bf ff 3b b6 bb
       -0.03695919 0.005830514 -1.0554947 -0.0055613513
0001c0 fc b2 3d bf 06 38 45 be 78 de 04 3a 33 0f 2d be
       -0.74101233 -0.19259652 0.0005068551 -0.1690033
0001d0 47 96 04 be 8c 4b 57 bd 9a 54 00 bd 2c fc 7b bd
       -0.12947951 -0.05256228 -0.031330682 -0.061519787
0001e0 cd 24 9e 3e a3 78 51 bc 87 34 82 bd d5 c9 c9 be
       0.30887452 -0.01278511 -0.06357675 -0.39411798
0001f0 bf c1 3b 3b 85 1d b5 bd 87 74 cc be 70 ef 7d 3c
       0.0028649417 -0.08843521 -0.39932653 0.015498981
000200 b6 01 ce 3c 52 9d 20 3f b0 b7 5d bd fc 8d 96 bc
       0.0251473 0.6274005 -0.054130256 -0.01837825
000210 c7 f7 9c be 93 1c d8 bc 30 ed 56 3d f2 2b 2b bc
       -0.3065779 -0.026380813 0.052472293 -0.010447489
000220 64 96 10 3d 31 76 0a 3c d2 b2 77 3b b1 ac 69 bd
       0.035299674 0.008451031 0.0037795794 -0.057049457
000230 40 9b da bc 3d 60 7e bd 6d 37 31 be b3 02 17 3d
       -0.026685357 -0.0621035 -0.173063 0.03686781
000240 b0 53 43 3d 45 6e 14 be 78 bb 39 3f 89 18 56 3d
       0.047687232 -0.1449519 0.7255168 0.052269492
000250 1c 55 e0 bd ec 6c c8 bc b9 3b 1c bf 90 17 12 be
       -0.10953733 -0.024466 -0.6102863 -0.14266801
000260 62 f6 33 bd 2e 12 95 bd 87 d5 96 3d 42 ed 4d be
       -0.04393614 -0.07278858 0.07364946 -0.20110038
000270 63 5e 9d bd 2e 5b 20 be cb c9 df bc be 99 30 3c
       -0.076840185 -0.15659782 -0.027317902 0.0107788425
000280 5d 48 da be db bd 2f 3d 1c 13 52 3f 27 f1 4e 3c
       -0.42633334 0.04290567 0.8206041 0.012630737
000290 54 63 39 3f 51 c1 7b be 3e 68 30 bc 30 98 5d be
       0.7241719 -0.24585463 -0.010767041 -0.21640086
0002a0 56 a7 23 bd 51 09 2c 3f 4b 84 4d be 0e be 9e 3d
       -0.039954506 0.67201716 -0.20069997 0.07751094
0002b0 d1 7f 90 bd c5 f0 49 be 90 6f 31 be 99 68 67 be
       -0.07055629 -0.19720753 -0.17327714 -0.22598495
0002c0 fe 5a 89 bd c5 f3 6b be df e8 ee 3c 6e 17 19 3d
       -0.067068085 -0.2304221 0.029163776 0.03737586
0002d0 b3 26 35 bd a9 27 08 bf 9c 7a 67 3d bc 15 cb bc
       -0.04422636 -0.53185517 0.056513414 -0.024790637
0002e0 fa 38 4d be 3e 18 71 3d 8f d0 0b 3d 27 01 75 3c
       -0.20041266 0.05886101 0.034134444 0.014953888
0002f0 91 31 0c bc 8a e0 25 be 34 06 75 bd 00 6c 24 bd
       -0.008556739 -0.16198936 -0.05982037 -0.04014206
000300 11 91 22 be c7 8c 02 be 6a f7 11 3e f4 c3 97 3f
       -0.15875651 -0.12749015 0.14254537 1.1856675
000310 51 5c 43 bc 91 45 b0 be bf 91 9a 3c c5 19 d2 3b
       -0.011923865 -0.34428075 0.018868325 0.0064117634
000320 7f a0 9d be 69 21 8d 3f 86 02 b0 3c c5 14 3d be
       -0.3078651 1.1025821 0.021485578 -0.18464954
000330 26 73 c0 3c 50 02 7b bf 0f 85 b0 be 45 14 63 bd
       0.023492407 -0.98050404 -0.34476516 -0.055439252
000340 31 ac 26 bc aa 75 a1 3c c4 b0 5a bd fa 4d 58 be
       -0.01017289 0.019709427 -0.053391233 -0.21123496
000350 a8 82 d3 bc f1 22 3d be 9d ae d2 bd 73 88 d9 be
       -0.025819138 -0.1847036 -0.10287211 -0.42486915
000360 eb 7a 9d bd 58 f1 b6 3c 1d 60 a1 bb 01 c9 06 3c
       -0.0768946 0.022331879 -0.0049247877 0.008226634
000370 08 0d 0b bc 02 6c 20 be 2a 92 15 3f a1 cc 34 be
       -0.008486994 -0.15666202 0.58426154 -0.17656185
000380 d8 49 19 3d 8b f6 81 3c d9 ef a1 bd c4 b6 78 3f
       0.03742394 0.015864631 -0.079070754 0.9715388
000390 62 6f 07 be 07 57 bc 3c df a0 aa be 6c 45 b8 bc
       -0.13226083 0.022990717 -0.3332586 -0.02249404
0003a0 1a bf 93 bd 8d 90 1f be cb 03 57 bd a8 0f 0c be
       -0.07214184 -0.15582485 -0.05249385 -0.13677847
0003b0 b8 56 11 bc ee d8 a9 3c 75 23 64 3b 9d f9 fb 3e
       -0.008870773 0.020733323 0.0034811173 0.49213877
0003c0 86 07 d0 be f3 05 c8 3b b8 bb 9a bc d0 2d 9a bb
       -0.4063074 0.006104225 -0.01888834 -0.0047051683
0003d0 d7 bb 2e be 42 76 16 bd 64 bd 87 be 47 54 cb 3f
       -0.17063843 -0.036733873 -0.2651168 1.5885094
0003e0 fa ab b1 3d 6b 10 34 be 0e ce 03 3d ec c9 1f bc
       0.0867538 -0.17584388 0.03217893 -0.009752732
0003f0 10 8c 8c bc cf dc 15 3d 93 f3 eb bc c9 92 53 bd
       -0.01715663 0.036587533 -0.028802669 -0.051653657

fc3.bias f4 [4]
000000 00 aa 15 3e b1 1e c5 bd ee 46 aa 3e 75 c7 1e 3e
       0.14615631 -0.096249945 0.3325724 0.15505774
